modelLSTM.pth (torch, 126562 bytes, 9 tensors)

lstm.weight_ih_l0 f4 [200, 1]
000000 9c 9e 28 be f9 e1 98 be 14 bd ad 3e 1a a4 54 3e
       -0.16466755 -0.29859903 0.33933318 0.20765725
000010 8a 23 fa 3e 00 bb 02 3f f0 be 0c 3f 50 ac 40 3e
       0.4885524 0.5106659 0.5497885 0.18815732
000020 e4 6b c4 3e f6 ae c3 3c 1e 75 b3 3e 57 a5 72 3e
       0.38363564 0.023887139 0.3505029 0.23695885
000030 ed c8 94 3e 6e 4c 97 3e 1a 6a 91 3e 08 b4 0b 3e
       0.29059544 0.295505 0.28401262 0.13642895
000040 33 90 44 3f 7c 1c 77 3f d9 eb 89 3e 09 bb ed 3e
       0.7678253 0.9652784 0.2693775 0.4643176
000050 39 36 e7 bd a3 f8 2e bd 06 c6 b3 3e e5 27 ac 3f
       -0.11289639 -0.042717587 0.35112017 1.3449675
000060 eb 75 d3 3e 51 c9 8a 3e 99 f9 e9 3e 5a 11 92 be
       0.41300902 0.27106717 0.4569824 -0.28528863
000070 39 5f d8 3e 14 da 19 bf 21 b9 80 3e 67 8d 61 3f
       0.4226015 -0.60098386 0.25141242 0.8810639
000080 36 35 0b 3f ee 51 e1 3d 38 77 b4 3e 89 1d 9a 3d
       0.5437807 0.11001955 0.35247207 0.07525165
000090 9e 45 e5 3d e9 89 7b 3e 14 e0 c6 3e d9 ef 42 3e
       0.11194919 0.24564327 0.38842833 0.19036807
0000a0 fb e8 1e 3f 7b dd 3d 3e 54 e0 8b 3e c4 f8 d0 3e
       0.6207425 0.1854152 0.27319586 0.40814793
0000b0 9e 04 b8 3e f6 2b 16 3f 3d 54 2f 3f e5 db 08 3f
       0.35941023 0.5866083 0.6848791 0.5346053
0000c0 ba e2 33 bf 13 f4 3a bf 49 d8 48 bf 0c 34 50 be
       -0.7026783 -0.7302868 -0.78455025 -0.20332354
0000d0 c8 6f 6c be 79 6e ae 3e 6c 17 85 3e 86 76 e1 be
       -0.23089516 0.3406866 0.25994432 -0.4403574
0000e0 d9 b3 fe 3e 51 7c 70 bf 8d 2a ff 3e c9 d3 04 3e
       0.49746588 -0.9393969 0.4983715 0.12971415
0000f0 08 e3 09 3f 4d ec 1c 3f e8 92 ae 3e b8 f0 a4 bf
       0.5386205 0.61298066 0.34096456 -1.2885962
000100 47 60 04 3f 9b 82 31 3e 1e 15 52 3f 9a d3 5a 3f
       0.5170941 0.17334978 0.8206347 0.8547913
000110 ff f8 8c 3e e2 02 0e 3f 2f fb ac be 4d c2 a0 be
       0.2753372 0.5547315 -0.33785388 -0.3139824
000120 df 4a b1 3e 23 5a 27 40 59 b9 0d 3f e9 fa 7e 3e
       0.34627435 2.6148765 0.55360943 0.24900402
000130 dd 25 03 3f 14 95 09 be 30 f4 52 3f de e3 de 3d
       0.5122965 -0.13435775 0.8240385 0.10883306
000140 30 3f f4 3e 92 1f 30 3e e1 b1 8e 3e 33 f9 1b 3e
       0.47704458 0.17199543 0.27870086 0.1523178
000150 d5 1b c9 3e 74 8c 65 bf 93 7c 1a 3d 2c 15 1a 3f
       0.39279047 -0.8966744 0.03771646 0.60188556
000160 63 97 8f 3e 83 12 e4 3e 9f 5c 04 3f 42 b7 39 3f
       0.28045186 0.44545373 0.5170383 0.72545254
000170 df 56 fe be 57 a7 9b 3e 3f 26 37 3f fd 8e d7 3f
       -0.49675652 0.30401108 0.71542734 1.6840512
000180 d5 3a 8d 3f af f5 12 3f 8e 5d 44 be 98 0f 9d 3f
       1.1033579 0.57406133 -0.19176313 1.2270384
000190 32 2c 83 be d2 0b 93 3f a2 9a 6a 3e e7 15 ec be
       -0.25619656 1.1487982 0.2291055 -0.4611046
0001a0 3b a5 67 3e 13 d2 4c 3f 04 e1 f2 3e d9 b2 99 3e
       0.22621624 0.8000805 0.47437298 0.30019262
0001b0 39 58 f4 3e 53 2b 50 3d 14 58 ab 3e 6b 85 13 bf
       0.4772356 0.050822567 0.33465636 -0.57625455
0001c0 94 34 06 3e 01 eb 91 bf 77 72 99 be 99 da 8f be
       0.13105994 -1.1399843 -0.29970142 -0.28096464
0001d0 79 11 09 3f 69 a3 3d bf 54 d2 90 be 5d 87 87 be
       0.53542286 -0.7407747 -0.28285468 -0.2647046
0001e0 22 05 d4 3e 5b 9d a5 3e 2f b4 06 be 31 25 dd bf
       0.41410166 0.32346615 -0.13154672 -1.7276975
0001f0 af 00 43 3e a3 25 97 3e 6f ee 1d bf 53 f9 75 3c
       0.1904323 0.29520902 -0.61691946 0.015013057
000200 46 16 25 bf 46 09 94 bf 27 1b e8 be 9b 0e a4 be
       -0.6448711 -1.156533 -0.45333216 -0.32042393
000210 5b 1d 10 be f2 7a c0 3d c2 7c e8 be 42 be 1a 3f
       -0.14073698 0.0939845 -0.45407683 0.6044656
000220 71 4d 1e be cb 3a b0 3e d7 d4 34 3e 1c f7 1f 3f
       -0.15459229 0.34419855 0.17659317 0.62486434
000230 10 52 9b be dc b6 fb 3e 79 e0 ef be dd 79 c6 be
       -0.30336046 0.49162948 -0.46850947 -0.3876485
000240 f4 23 32 bf df 86 b9 3f 46 c1 b2 be ce a1 b7 3e
       -0.6958611 1.4494284 -0.3491308 0.35865635
000250 8e 2e 94 be 0c 3a 34 3f ab 23 b8 bd 03 a0 d3 be
       -0.28941768 0.7040107 -0.08991178 -0.41333017
000260 20 12 4b 3e b9 bb a0 3e 43 eb 59 3f 6f 1e 0f 3f
       0.19831133 0.3139322 0.85124606 0.5590581
000270 52 c6 39 3f 85 22 20 be 37 f7 e8 3e 0d 81 c1 3e
       0.7256824 -0.15638168 0.4550111 0.3779377
000280 99 91 20 3f 96 c0 75 3e 09 ab c7 3e 32 a0 04 bf
       0.62722164 0.23999247 0.38997677 -0.5180694
000290 37 ee b9 3e 23 66 89 3e de eb 27 3f 30 d2 8f 3f
       0.36314556 0.26835737 0.6559428 1.1236019
0002a0 ad 63 88 3e 06 bb 00 3f 95 4d 59 be 8e 08 28 be
       0.26638547 0.50285375 -0.21221001 -0.16409513
0002b0 f6 40 0e 3f 46 04 b3 3f 7e 11 4c 3f bf 96 c0 3d
       0.5556787 1.3985679 0.7971419 0.094037525
0002c0 b1 34 2a 3f c8 43 85 be 93 25 31 3f 3a bb 9a be
       0.6648665 -0.26028275 0.6919796 -0.30220968
0002d0 b0 6c 94 3e d5 e4 2a 3f e2 29 23 3f 04 66 6d 3c
       0.28989172 0.6675542 0.63735783 0.014489654
0002e0 9c db db 3e fe e2 80 bc 45 31 80 3e 31 99 ea 3e
       0.42940986 -0.015733238 0.2503759 0.4582
0002f0 e7 72 b9 3e b7 cb 81 3e d1 31 42 3f 6a 61 0b 3f
       0.36220476 0.25350735 0.75857264 0.5444552
000300 26 08 aa 3e 04 95 00 3f ef 5f 34 3f a7 3f 4d 3f
       0.33209342 0.5022738 0.70458883 0.8017525
000310 19 6b 57 3f e9 06 24 3f 0a 27 01 bf 14 d5 90 be
       0.84147793 0.64073044 -0.50450194 -0.28287566

lstm.weight_hh_l0 f4 [200, 50]
000000 73 85 c0 3d ed e1 d1 3d 28 79 08 3e 8b 64 64 be
       0.094004534 0.1024817 0.13327467 -0.22303979
000010 d8 e2 ca 3e 55 c7 87 3e 74 32 8b 3e b2 1c 19 bc
       0.39626193 0.26519266 0.2718693 -0.00934522
000020 d4 1f 99 3e c7 57 be 3d 95 f7 9e 3e 90 c3 1f be
       0.29907095 0.09294086 0.31048265 -0.15601945
000030 bf e5 91 3c 63 c5 99 bd 47 24 b6 bd d8 6f e9 bd
       0.017809747 -0.07508352 -0.08893638 -0.113982856
000040 32 d5 db 3e de a1 fc be 88 62 56 be 9d a6 9e be
       0.42936093 -0.49342245 -0.20936024 -0.3098649
000050 d1 8f 15 3e 6f 07 31 bd 61 9e 05 be f6 e4 07 bf
       0.14605643 -0.04321998 -0.13048698 -0.5308374
000060 8b 5e 15 3e 4a 8d 44 3e 5c c6 9b be a6 02 1a 3b
       0.14586847 0.19194523 -0.30424774 0.0023500114
000070 8e 4f ee be 51 1d 90 3e 00 38 93 bd 78 8b 5c be
       -0.4654507 0.28147367 -0.071884155 -0.21537578
000080 96 e1 89 be df 77 b7 ba c6 21 87 be 15 7d 54 3d
       -0.2692992 -0.0013997516 -0.26392955 0.0518771
000090 65 75 81 bd 77 c9 b1 3d b4 e0 89 3d 79 8f a0 3e
       -0.06321219 0.086810045 0.06732312 0.3135946
0000a0 37 84 dc be dd 41 b3 3e 40 42 7a bd 2f 47 09 be
       -0.43069622 0.35011187 -0.061098337 -0.1340606
0000b0 90 2b ea be e2 61 8f 3e 9b 9e 89 be 3a 7e 8d 3e
       -0.4573636 0.28004366 -0.2687882 0.27635366
0000c0 5e dd 19 bd b9 54 96 3c df 15 0d 3f be 2e 30 3d
       -0.037564628 0.018350946 0.551115 0.043013327
0000d0 80 22 c9 be 93 e1 1f bf bb d2 19 3f 8f 46 03 3f
       -0.39284134 -0.62453574 0.60087174 0.5127954
0000e0 84 2b 4b 3f 35 21 fb be d7 5d 21 3f 28 d3 11 bf
       0.79363275 -0.49048772 0.63033813 -0.56962824
0000f0 2f 4f 01 3f 37 9b 41 bf 45 9f 0a 3f 58 ac 3f be
       0.5051145 -0.75627464 0.54149276 -0.18718088
000100 6d d0 f7 be cd 39 10 bf c6 9c 37 3f ca a9 17 bf
       -0.48401204 -0.56338197 0.7172359 -0.5924345
000110 6f b5 b8 be 9e c0 e5 be cb ac 6f bc 23 47 f5 bd
       -0.36075923 -0.44873518 -0.014628599 -0.11976459
000120 b8 ed ca be 3c b6 36 bf 02 21 0b 3f 56 3b e2 3e
       -0.3963449 -0.7137182 0.5434724 0.44185895
000130 54 3a 1c bf 0d 67 e8 be d9 a7 2a bf 11 44 a4 bd
       -0.610265 -0.45391122 -0.66662365 -0.08020795
000140 3e 51 2f bf 51 5d f8 be f3 44 04 bf 38 a8 2b 3f
       -0.6848334 -0.48508695 -0.5166771 0.67053556
000150 0e 72 fc be bf cf 1d 3e 0c 11 33 bf d8 02 1d 3f
       -0.49305767 0.1541128 -0.69947886 0.61332464
000160 81 37 36 3f c5 d5 44 3f a6 99 2a bf eb 17 1e 3f
       0.7117844 0.76888686 -0.666407 0.61755246
000170 ee 77 ed bd b6 f2 0b bf f0 4f fd be 35 9f 54 3f
       -0.115951404 -0.5466722 -0.4947505 0.8305543
000180 eb 68 06 bf 60 64 26 3f 0a 84 80 3e 9e b8 aa 3e
       -0.5250384 0.6499691 0.25100738 0.33343977
000190 6c 2d b9 3c 66 be 3b 3d ae ce 2b 39 72 d3 fb bd
       0.022604667 0.045835875 0.00016384825 -0.12296189
0001a0 a7 11 d1 3e 96 2c 23 3d a1 67 f5 3d ea 33 0e 3d
       0.4083378 0.039837442 0.11982656 0.034717478
0001b0 c4 da 75 3e d9 f3 e3 3c 37 30 4f 3e 4f 8a 35 be
       0.24009234 0.027826237 0.20233236 -0.17728542
0001c0 82 36 e2 3d 88 d2 7c 3e c9 01 7c bb e6 a0 a7 bd
       0.11045553 0.24689686 -0.0038453212 -0.08184986
0001d0 00 fa a5 3e 62 f4 91 be 4a 55 1d be 70 49 f8 be
       0.32417297 -0.28506762 -0.15364566 -0.48493528
0001e0 4c 16 fb bd 0c 75 e9 bb 4d cc 82 be f6 bb 64 bf
       -0.12260112 -0.007124549 -0.25546494 -0.89349306
0001f0 a4 2d 0e 3d 75 a5 0b 3e 65 2c 95 be 07 ae 08 bd
       0.034711495 0.13637336 -0.29135433 -0.03336909
000200 d9 4d 94 be a7 26 77 be b2 dd 0a be 07 2a 41 be
       -0.28965643 -0.24135838 -0.13561133 -0.18863688
000210 3c 27 fe bc 66 68 28 3e 0c 88 29 be d9 7b fe 3d
       -0.031024568 0.16446075 -0.16555804 0.12425966
000220 87 bc 1b be aa b3 76 3e 82 14 14 3e 9f 42 0e 3f
       -0.15208636 0.24091974 0.14460948 0.55570406
000230 79 da 11 bf eb 03 02 3f b0 25 be 3d 21 e4 49 3b
       -0.5697399 0.5078723 0.09284532 0.0030806141
000240 7e 0e 4d be 2d 27 6c 3e 76 76 24 be 43 e0 60 3e
       -0.2002506 0.2306182 -0.16060814 0.21960549
000250 59 62 0f 3e c1 55 0e 3f 3e bd aa 3e ed 96 50 bd
       0.1400236 0.555996 0.33347505 -0.050925184
000260 d8 30 01 be 0c 99 22 be 17 48 dd 3e b3 24 95 3d
       -0.12616289 -0.15878695 0.43219063 0.072823904
000270 32 54 d1 3e 63 3a 61 be f4 ec a7 3e 63 66 4c be
       0.40884548 -0.21994929 0.32797968 -0.19960932
000280 69 84 0a 3e e7 bc c3 be be 85 91 3e ba 24 a4 3e
       0.13527073 -0.3823006 0.2842235 0.3205927
000290 5d 3c 76 be f8 17 65 be a3 bb 0c 3f 17 14 cf be
       -0.24046464 -0.22372425 0.5497381 -0.40445015
0002a0 c9 b7 83 be 0d 1b 71 be b8 30 58 be cc 89 7f be
       -0.25726154 -0.23545475 -0.21112335 -0.24954909
0002b0 25 98 7d be 01 84 19 bf da 01 01 3f e7 0d 9a 3e
       -0.2476507 -0.59967047 0.5039345 0.30088732
0002c0 23 43 95 be 52 4a a5 be 5b c6 b1 be 79 a9 f7 3c
       -0.29152784 -0.32283264 -0.34721646 0.030232178
0002d0 0b ca c9 be 13 c0 a6 bd 34 ff a6 be 0f 5d c1 3e
       -0.3941196 -0.08142104 -0.3261658 0.3776631
0002e0 48 8e 6d be 6d 82 41 bd d4 e2 31 be c3 c9 5c 3e
       -0.23198807 -0.047243524 -0.17371684 0.21561341
0002f0 09 d6 82 3e 3b 57 08 3e c2 a3 9a be 7a 01 4f 3e
       0.2555392 0.13314526 -0.30203062 0.20215407
000300 26 44 84 3d ec 15 bc be 97 31 6f be 32 f8 65 3e
       0.06458311 -0.36735475 -0.23358761 0.2245796
000310 ac e8 c3 be 2f af b0 3e d4 ea 3a bd 6e b7 29 3f
       -0.38263452 0.34508654 -0.045634106 0.66295516
000320 de 01 49 3e c5 e4 eb be a9 57 c6 bb f2 b3 83 bd
       0.19629619 -0.46072975 -0.0060529304 -0.06430806
000330 5e 04 39 3e 48 42 51 be 56 16 a3 3e 70 aa 68 3c
       0.18068072 -0.2043544 0.31852978 0.014200792
000340 5b 4e 68 3e cf 7c c4 bb e5 60 c4 3d b8 92 65 bd
       0.2268614 -0.0059963237 0.09588794 -0.056048125
000350 2d 93 33 3e 00 ba 45 3e bf 2d 68 bd aa 32 88 be
       0.17536612 0.19309235 -0.056684252 -0.26601154
000360 7b 1f 11 3e 2d 5b f7 be af 00 3c be 7f ff d4 be
       0.14172165 -0.4831175 -0.18359636 -0.41601178
000370 b0 20 61 be 13 26 23 bb c6 15 4d be 50 48 1e be
       -0.21985126 -0.002489452 -0.20027837 -0.15457273
000380 d7 a4 0e 3e f8 f3 45 3e 2b 07 19 be c6 ce 62 be
       0.13930069 0.19331348 -0.1494414 -0.2214919
000390 d5 dd 02 be c0 a5 6a 3e b7 99 ad be b6 66 9b be
       -0.12779935 0.22914791 -0.33906338 -0.303518
0003a0 cc f9 af be 6a b3 88 3e 0c 4f a4 be ec a8 4f be
       -0.34370267 0.26699382 -0.32091558 -0.20279282
0003b0 81 20 5c bd d5 83 2f 3e 22 6b a3 3d 4f ff bf 3e
       -0.053741936 0.17140134 0.07979418 0.37499472
0003c0 bd 3a 52 be a4 20 40 3e fe 23 16 3d d1 06 1d be
       -0.2053022 0.18762451 0.03665542 -0.15334632
0003d0 fd 03 9b be ad 1e 35 3e 66 16 0f be 07 2c b3 3e
       -0.3027648 0.17687483 -0.13973388 0.34994528
0003e0 b9 50 80 3f 6a e2 9e bd 3c 78 03 3f d0 41 48 be
       1.0024635 -0.07758029 0.5135534 -0.19556355
0003f0 55 2a f5 be c3 61 26 bf f6 58 26 3f 6e da 29 be
       -0.4788386 -0.6499292 0.64979494 -0.1658723

lstm.bias_ih_l0 f4 [200]
000000 c5 14 5a 3e 72 93 40 3f fb b2 3f 3e e4 a0 95 3e
       0.21296985 0.75224984 0.1872062 0.29224312
000010 d3 95 5d 3e d2 62 06 3f 02 9a e2 3e c2 d9 0e 3f
       0.21639185 0.5249454 0.44258124 0.5580102
000020 78 7e 1e 3e 1e 4e 88 3d 44 7b 58 3e d5 8c 24 3e
       0.15477931 0.06655525 0.21140772 0.16069348
000030 1d ba 14 3e 9a b3 42 3f 9e 16 4d 3e e1 de 42 3e
       0.14524122 0.760553 0.20028159 0.19030334
000040 35 b1 a6 3e 9e f8 ac 3e 0c 29 db 3d 97 87 ea 3d
       0.32557073 0.3378343 0.107011884 0.11451643
000050 6e 8e d1 3e a9 9d 0f bd 86 61 9f 3e 8a 17 13 3f
       0.40928978 -0.035062466 0.31129092 0.5745779
000060 c9 d2 87 3e a0 e1 40 3e db ef bc 3e 85 16 a0 3d
       0.26528004 0.18836069 0.36901745 0.07816795
000070 88 c1 a5 3e 42 8f b6 3e 0a e2 4a 3e 29 c7 9c 3e
       0.32374215 0.35656172 0.1981279 0.30620697
000080 f5 fb a3 3d 17 d3 db 3d 39 0b 99 3d d4 e9 3a 3e
       0.08007041 0.107336216 0.07472844 0.18253261
000090 70 54 57 3e ac 61 6e 3e bf 11 9e 3d e5 29 e2 3e
       0.21028304 0.23279446 0.077182285 0.44172588
0000a0 63 10 8b 3e 92 22 99 3e cb 32 72 3e a5 1c 37 3e
       0.2716094 0.29909188 0.23652188 0.17882021
0000b0 39 7d 84 3e 30 b1 c3 3e de 3b 81 3e 7a 33 95 3e
       0.25876787 0.3822112 0.25240988 0.29140836
0000c0 44 80 75 3e 3e 62 9d 3e 87 54 d8 3d 27 4c ed bd
       0.2397471 0.30739015 0.10562997 -0.115867905
0000d0 4e eb 83 3c 96 4d 2d 3d 80 8d 0f bd b3 b5 5b 3d
       0.016103413 0.04231032 -0.035047054 0.05364008
0000e0 5b 69 1f 3e da c6 b5 bd f6 05 3f 3e 79 e1 2e 3d
       0.15567534 -0.088758186 0.18654618 0.042695496
0000f0 17 0a a0 b9 6a 42 0c 3c 9d 39 af 3d d8 d6 09 bd
       -0.00030525096 0.008560756 0.08555911 -0.033652157
000100 13 e6 f3 3d 09 2a 32 3c 49 2d a0 bd 57 2c 01 3b
       0.119091175 0.01087428 -0.078211375 0.0019710266
000110 c3 db 87 3d 89 35 38 3c c3 89 f3 3d b0 cd 08 3e
       0.06633713 0.0112432325 0.1189151 0.13359714
000120 95 0c b5 3d a8 ff dc 3d 23 19 98 3d fc 7c 1a bd
       0.088402905 0.1079095 0.074266694 -0.03771685
000130 23 57 f4 3d e6 91 38 3d c6 94 e4 3d da e0 0e be
       0.119306825 0.045061015 0.11161189 -0.13952962
000140 4a e2 6e 3d 68 18 e5 bd 52 a6 fb 3d 41 fc 80 bd
       0.058321275 -0.11186296 0.122875825 -0.062981136
000150 dd a9 09 3d 09 89 17 be 30 a8 43 bd b1 93 fb bd
       0.03360926 -0.14798369 -0.047767818 -0.12284029
000160 31 c7 2d 3d db c2 e1 3d 40 da ed 3d 2d cd 36 3e
       0.04242629 0.11023494 0.116138935 0.17851706
000170 ae 6c 5b 3e 97 96 05 3e f2 4c d8 3d b7 d1 01 3d
       0.21428177 0.13045727 0.10561551 0.03169414
000180 e1 57 ff 3d 6e 61 d9 3d 1c a9 70 bd 06 ab ac bd
       0.124679334 0.10614286 -0.058755025 -0.08431058
000190 a5 4e fc 3d df 93 fc bd 83 43 44 be 1b d1 0d be
       0.12319688 -0.12332892 -0.19166379 -0.13849299
0001a0 e1 55 36 3d 70 65 7d be 8e c7 9d 3e ad 12 9b be
       0.044515494 -0.24745727 0.3081631 -0.30287686
0001b0 7b 61 44 3e 4a 88 27 be 4f 96 2c 3d 72 53 8f 3c
       0.19177811 -0.16360584 0.042135533 0.017495845
0001c0 94 b0 1f 3e a8 3e b9 3e e8 65 c6 bd 08 7d 33 be
       0.15594703 0.36180615 -0.09687406 -0.17528164
0001d0 2d 1b 04 3e e8 98 a7 3d 15 e2 92 bd c3 c5 97 bc
       0.12900992 0.081834614 -0.07172028 -0.018526917
0001e0 3a 39 59 bd c0 b9 28 be b4 00 1e be 8a 6d a1 bc
       -0.05303309 -0.16477108 -0.15429956 -0.019705553
0001f0 a5 d5 75 3e 47 49 04 3e 61 7b ab bd 81 41 24 be
       0.2400728 0.12918578 -0.08373142 -0.16040613
000200 73 18 80 bd f7 e5 be 3d 60 42 27 3d 2d 93 9c bd
       -0.06254663 0.09321206 0.040834785 -0.07645259
000210 b9 dc 93 bd dc 2f 43 3e 51 fe 6f bc 48 70 54 be
       -0.07219834 0.19061226 -0.014648036 -0.20745957
000220 62 70 77 be d2 52 0d 3e 3d f8 6c 3e 95 65 6b bd
       -0.24163964 0.13801125 0.2314157 -0.057469923
000230 c1 c5 fd bc 62 38 39 3d 53 b0 13 3e 74 5e 9a bd
       -0.030978085 0.045219786 0.14422731 -0.07537547
000240 ff 74 dd bd 19 21 ba 3d 40 26 1f be a1 ff 06 3e
       -0.10813331 0.09088344 -0.15541935 0.13183452
000250 31 48 0e 3d 99 65 a4 bc de c6 75 3e fb a8 18 3f
       0.034736816 -0.020067977 0.24001643 0.59632844
000260 c7 e2 26 3d 78 94 89 3e e1 25 1f 3e 5c d2 1a 3f
       0.040743615 0.26871085 0.15541793 0.6047723
000270 8c 01 93 3e bb 60 bc 3e 87 2e b9 3e 76 2f 99 3e
       0.28712118 0.3679255 0.3616831 0.29919022
000280 fb 22 db bb 39 7e 88 3e fc 20 0d 3e 2e f8 0b 3f
       -0.0066875196 0.266588 0.13782114 0.5467557
000290 21 77 f1 3c 6c f0 1a 3d 8b 41 8e 3e 11 36 a6 3e
       0.02947575 0.03782694 0.2778438 0.32463124
0002a0 e6 a8 48 3d dc ab b2 3d c7 56 b2 3e 0b 00 11 3d
       0.0489892 0.08724186 0.3483183 0.03540043
0002b0 98 80 b5 3d 1c 67 e1 3e c5 72 9a 3e 4c d5 c2 3d
       0.08862418 0.4402398 0.30165687 0.095133394
0002c0 93 3c 67 3e 92 7b fa 3c f0 95 c4 3e cb 7c e8 3e
       0.22581701 0.030576501 0.38395643 0.4540771
0002d0 fe d5 b7 3c a3 79 91 3e 77 e6 f4 3d 2b 19 10 3e
       0.022440907 0.28413114 0.1195802 0.14072101
0002e0 d4 4c 9d 3e 96 f5 ab 3e 5e ff 40 3e 0c 6a 81 3e
       0.30722678 0.33585805 0.18847415 0.2527622
0002f0 10 04 93 3d bd 66 88 3e cc 1b 15 3e bd d5 46 3e
       0.07178509 0.26640883 0.14561385 0.19417472
000300 74 61 a1 3e d7 fc 58 3e 72 83 7b 3e 2f e3 de 3e
       0.31519663 0.21190201 0.24561861 0.43532702
000310 f9 92 e7 3d 54 b0 3c 3e dc 92 cd 3d e8 70 25 3e
       0.1130733 0.18426639 0.10037777 0.16156352

lstm.bias_hh_l0 f4 [200]
000000 ec 6b 5b 3e 0b 2f 03 3f 2a ca 9a 3d a3 cf 73 3e
       0.21427888 0.51243657 0.07558091 0.23809676
000010 6d 7a 6e 3e 6d 7a 0a 3f 24 eb dc 3e f7 2a 91 3e
       0.23288889 0.54093057 0.43148148 0.28353092
000020 cb 1a 8c 3e 08 ab 1e 3e da 09 57 3c 47 f3 95 3e
       0.2736419 0.1549493 0.013124907 0.29287168
000030 7c 88 06 bd 6b 9b 4a 3f 76 7f bf 3d 4a 4f bb 3d
       -0.032845005 0.791434 0.09350483 0.091459826
000040 e2 9b d5 3e 2d 1c fc 3e 00 33 5f 3b 88 04 5a 3e
       0.41720492 0.49240246 0.0034057498 0.21290791
000050 7f 5f b7 3e d4 55 05 3e 83 59 91 3e 63 94 17 3f
       0.35815045 0.13021022 0.28388605 0.59210795
000060 58 46 83 3e 68 5f 9f 3c 67 25 35 3e c8 d5 a9 3d
       0.25639606 0.019454673 0.17690049 0.08292729
000070 86 8a ca 3e 78 17 b3 3e 17 4d 81 3e 64 02 bb 3e
       0.3955881 0.34978843 0.25254127 0.3652526
000080 6a 80 dd 3d 5f a7 98 3e 3d fa 93 3e 2c 3d c5 3e
       0.10815509 0.29815194 0.28901854 0.38523233
000090 d3 d6 a0 3d ba 34 37 3e 9c 99 84 3e b8 1f ad 3e
       0.078534745 0.17891207 0.25898445 0.33813262
0000a0 5b 21 3b 3e 91 80 93 3e 93 54 d7 3e 43 30 6d 3e
       0.18274443 0.28809026 0.42056713 0.23162942
0000b0 ff 7b d6 3e 6e b4 f7 3e df 4f 7e 3e e1 78 08 3e
       0.41891477 0.48379844 0.24835156 0.13327362
0000c0 3c 2c 02 3e 46 e0 9e 3e 32 55 90 bc b0 af 1c be
       0.12712187 0.31030482 -0.01761875 -0.15301394
0000d0 b6 28 55 3d 1f 5a 81 3c 4b 64 48 3e ac e3 85 3d
       0.052040778 0.015790043 0.19569509 0.065375656
0000e0 93 cb 81 bc 64 7a 63 3d 56 14 4d bd 41 a2 2e 3d
       -0.015844142 0.055536643 -0.050068222 0.042635206
0000f0 10 ca 86 bc c8 ca 2c 3e 23 eb 90 bd 91 de 9f 3d
       -0.016453773 0.1687423 -0.07076099 0.07806123
000100 96 d7 0f bc 32 a5 4a bd 83 8a 66 bd 6b e1 6f bc
       -0.008779427 -0.04947395 -0.05628444 -0.014641146
000110 71 c0 a2 3d 6e 7e 82 bd 14 75 15 bd 80 f1 c7 3d
       0.079468615 -0.06371771 -0.036488608 0.09762859
000120 03 b6 af 3b 95 06 de 3d 3e aa 2f 3e c3 87 15 bc
       0.0053622737 0.10841099 0.17154786 -0.009126606
000130 27 61 cd 3d c7 a0 07 3d 6b 10 b4 bd 1e 29 83 be
       0.10028296 0.033112314 -0.08792194 -0.25617307
000140 46 80 43 bd 35 0b 6b 3b d1 21 51 bd 9e 12 10 3e
       -0.047729753 0.0035864834 -0.05105764 0.14069602
000150 fa b8 51 3e 73 8c 36 bd 8a d7 03 3e d9 86 d1 3d
       0.20480719 -0.044567537 0.1287519 0.10230798
000160 53 fc 08 3e ad 36 e5 bd 67 14 ed 3d df cf 08 3e
       0.13377504 -0.11192069 0.11576157 0.13360547
000170 49 b9 8f 3e 49 bd a0 bc 12 ee 78 bd dc 70 0f be
       0.2807105 -0.019621508 -0.060773917 -0.14007896
000180 de 0d 3e bd 8f b0 11 bd b3 cb 27 3d a1 d4 63 be
       -0.046399944 -0.03556877 0.040965747 -0.2224908
000190 19 54 37 3e 4a b9 a8 be 01 5c 99 bd c8 3e 9d bd
       0.17903174 -0.32953864 -0.074882515 -0.0767799
0001a0 0e 5a 3c 3e 79 04 0a be f8 2d a4 3e 49 72 46 be
       0.18393728 -0.13478269 0.3206632 -0.19379534
0001b0 0d e9 7b 3e 0a fc a0 bd b4 b0 28 3e d0 c1 90 bd
       0.2460062 -0.07860573 0.16473657 -0.07068217
0001c0 9c 93 55 3e 9b 5a f2 3e 36 8e 8f bd 69 67 09 be
       0.2085709 0.4733475 -0.070095465 -0.13418354
0001d0 77 77 e7 3d 8b 9f ca bc c7 77 da bd 0a 33 82 bd
       0.11302083 -0.02473428 -0.10667377 -0.06357391
0001e0 51 a5 5c be 2a eb eb bd d4 1e b0 bc 2e 45 91 be
       -0.21547438 -0.11519463 -0.021499075 -0.28373092
0001f0 e6 5c 21 3e 86 7a 2f 3e 35 e7 58 bd 3d e6 dd bd
       0.15758094 0.17136583 -0.05295487 -0.1083493
000200 34 da ad bc 63 65 39 3e 2f 9b db bd 6a e7 1f be
       -0.021222211 0.18105082 -0.10722958 -0.15615621
000210 0d 8c 81 be cf 41 4e 3e c4 c9 d1 bd 07 e8 89 bd
       -0.25302163 0.20142291 -0.10243562 -0.06733709
000220 d3 1a 8a be 38 8c 34 3d 03 fd fc 3d 78 da 6b bd
       -0.2697359 0.044079036 0.12352946 -0.057581395
000230 c9 45 bc bd 76 69 bb bc 46 26 73 3e 28 b7 45 be
       -0.09192998 -0.022877436 0.23745069 -0.1930815
000240 82 27 84 3d a9 2a eb 3d e4 ab 69 bd 82 17 92 3d
       0.06452848 0.11482746 -0.057048693 0.0713339
000250 02 12 79 3d 14 30 00 3d e1 3c 40 3e af 7d 44 3f
       0.06080819 0.03129585 0.18773223 0.7675428
000260 2b e1 e3 3d 00 7c 06 3e 09 12 d5 3d 8d 24 1c 3f
       0.11126932 0.1313324 0.104038306 0.6099327
000270 dc 05 96 3e 21 c8 12 3f 6f 00 ad 3e 4c d3 23 3e
       0.29301345 0.5733662 0.33789393 0.15998572
000280 81 22 b9 bb 26 16 9e 3e 1f 2b a7 bc 52 26 34 3f
       -0.005649865 0.30876273 -0.020406304 0.7037097
000290 52 42 36 3d 5e 9b 62 3d 96 f2 a3 3e 16 d5 dd 3e
       0.04449684 0.05532395 0.32021016 0.43326634
0002a0 7d 8a 1e 3e a9 9e 35 3e 08 a6 83 3e 18 1c 5a 3e
       0.15482517 0.17736305 0.2571261 0.2129978
0002b0 60 96 2e 3e cf b2 c5 3e 9e 13 38 3e c9 78 64 3e
       0.17049551 0.38612983 0.17976233 0.22311701
0002c0 7e 6f a2 3e d6 5a 76 3d c2 0f a7 3e 24 33 9c 3e
       0.31725687 0.06014522 0.3262921 0.30507767
0002d0 d0 64 94 3e 50 3a fd 3e d9 54 39 3d 18 30 86 3e
       0.28983164 0.4945855 0.045246933 0.26208568
0002e0 36 79 82 3e b4 23 d0 3e 4f 1d 3c 3e a6 dd 30 3e
       0.25483102 0.4065224 0.18370555 0.17272052
0002f0 9c da 31 3e 6c 91 cc 3e 19 59 6d 3e 40 b5 92 3e
       0.17368549 0.39954698 0.2317852 0.28653908
000300 54 a0 83 3e d1 ab 60 3e 6a d9 5b 3e a3 d4 98 3e
       0.25708258 0.21940543 0.21469656 0.2984973
000310 b7 d5 8b 3e d1 0e a1 3e ce 64 89 3e 2b 83 ab 3e
       0.2731149 0.31456617 0.2683472 0.3349851

lstm.weight_ih_l1 f4 [200, 50]
000000 aa 33 ad 3c 42 5c 02 bf d1 79 e1 3d 34 0a 02 be
       0.0211428 -0.50922024 0.11009563 -0.12699205
000010 75 f1 06 3d da 51 a2 3c 77 f8 64 3c b6 91 d2 3d
       0.032945115 0.01981442 0.013975254 0.102816984
000020 1b 43 6b 3e 85 80 2e bd 21 f5 2d 3e 90 b5 d7 bd
       0.22974817 -0.042603035 0.1698804 -0.10532677
000030 2e 48 35 3e 79 63 81 be 76 ac d7 bc 4e 14 d2 bd
       0.17703316 -0.25271204 -0.026327353 -0.10257779
000040 92 72 80 3d 2e 02 2b be b8 46 fc bd 59 ac 9e bd
       0.062718526 -0.1670005 -0.12318176 -0.077477165
000050 2d 5e fe bc 4d f6 ce bc 22 9a cc 3c 9d 76 6e bd
       -0.031050766 -0.02526393 0.02497584 -0.058218587
000060 a0 9c 27 3e c8 89 83 3e bb 7e 21 be e3 17 f7 bd
       0.16368341 0.25691056 -0.15771 -0.12065103
000070 0c 98 64 be f5 a0 cc 3e 19 dc f1 bd 96 83 b9 be
       -0.22323626 0.3996655 -0.118095584 -0.36233205
000080 c8 83 aa ba 69 c1 44 bd 12 8f 01 be 2d b7 7f 3e
       -0.0013009245 -0.048036013 -0.12652233 0.2497222
000090 49 6a 8b bd 21 c0 44 3e 72 72 6f 3e 20 f9 d4 3d
       -0.06807382 0.19213916 0.23383501 0.10399079
0000a0 20 33 80 bd 0f 4a 89 3e a6 94 9a be 36 fb b8 bd
       -0.06259751 0.26814315 -0.30191535 -0.0903229
0000b0 96 6c 1c be 9a 8a 9e 3e 3b c7 05 be ef 57 9e 3e
       -0.15275797 0.3096512 -0.13064282 0.30926463
0000c0 3d 06 b5 3e 20 c2 bc be 50 89 05 3e 69 0a 0b bf
       0.35356322 -0.36866856 0.13040662 -0.5431276
0000d0 2e 4b d2 3d 17 ae 82 be f1 c8 1e 3e 1c 65 3a bd
       0.10268246 -0.25523445 0.1550634 -0.04550658
0000e0 af ab 0c 3e 3b a5 4e be 96 db 89 3e 9c fa 56 3e
       0.13737367 -0.20180218 0.26925343 0.20994037
0000f0 07 84 76 3e cf f9 8d be 60 11 17 3e 8d 8e 23 be
       0.24073802 -0.2772965 0.14752722 -0.15972348
000100 f3 b7 8b be d2 30 9c be f1 8a ec 3e 25 c4 aa be
       -0.2728878 -0.30505997 0.46199754 -0.3335277
000110 ef 21 9e be 73 e0 9c be f4 c0 31 be 8d 0d 88 bd
       -0.30885264 -0.3063999 -0.17358762 -0.066432096
000120 34 66 96 be e9 5d 78 be db 55 86 3e 73 dc 6e 3e
       -0.2937485 -0.24254574 0.26237378 0.23326282
000130 5c 3a 78 be d9 02 c6 bd ab 41 de be 4c 28 bb 3d
       -0.24241012 -0.09668512 -0.43409476 0.091385454
000140 56 01 9f be 8d 1b 59 3d 15 5f 7c be d7 31 bb 3d
       -0.31055707 0.05300479 -0.24645646 0.091403656
000150 fd a2 88 be 6b 2a 10 be 60 4e 46 be a9 4c 7f 3e
       -0.2668685 -0.14078681 -0.19365835 0.24931587
000160 d0 2c b7 3e 0c 16 e8 3d 8d f9 c4 be 77 15 4f 3e
       0.35776377 0.1133233 -0.38471642 0.20223032
000170 1b 1f 99 be 3d 5d 39 be 33 6d aa be 8d b1 e2 3e
       -0.29906544 -0.18101974 -0.33286437 0.44276085
000180 53 ff bd be b3 bf ce 3e 91 fa 26 3f c9 f6 94 3d
       -0.3710886 0.4038063 0.65226084 0.07273633
000190 f8 68 a2 3e ad 08 8e bf 0c fd 84 bc 24 99 a2 be
       0.3172071 -1.1096398 -0.016233943 -0.31757462
0001a0 d6 76 2e 3f 0d 11 21 bf 55 b8 a1 3e 02 9d ef be
       0.6815008 -0.6291664 0.31585947 -0.46799475
0001b0 f9 5b 0f 3e 3f da 3c be 01 74 da 3e c5 77 1c 3e
       0.13999929 -0.1844263 0.4266663 0.15280063
0001c0 2b d8 5c 3e f8 66 01 3f 1a df 81 be aa 92 fd bd
       0.21566837 0.5054774 -0.25365525 -0.123814896
0001d0 09 b1 fd 3e bc 15 b3 be af e8 c3 bd 18 68 52 bf
       0.4954913 -0.3497752 -0.09565865 -0.82190084
0001e0 9a 49 1d bf 4e 54 b5 bd 7e 6d 9e be f1 11 84 be
       -0.6144043 -0.088539705 -0.3094291 -0.25794938
0001f0 4b 2c 18 3f 18 61 c8 3d 77 8b 26 be d0 19 96 be
       0.59442586 0.09784144 -0.16264139 -0.29316568
000200 2c 0d 6b be c7 15 3e 3f 98 66 a6 be 02 15 1b 3e
       -0.22954243 0.7425198 -0.32500148 0.15144733
000210 e1 f9 c1 be 2a b2 a3 3d 7e 70 07 bf 2a 30 03 bf
       -0.37885955 0.079929665 -0.52906024 -0.5124537
000220 ae e4 68 be 98 48 4c 3e ff 3b 8c 3e dd e1 04 bf
       -0.22743484 0.19949567 0.27389523 -0.5190714
000230 65 2c 25 bf ae a2 81 3e e0 c8 7d 3e 1b 0e 12 be
       -0.64520866 0.25319427 0.24783659 -0.14263193
000240 bd 34 79 be 4d 69 73 3e a4 fb 04 bf 94 74 ef 3e
       -0.24336524 0.23770638 -0.51946473 0.4676863
000250 28 86 af 3f fa 32 97 be f4 e6 eb 3c 18 10 97 3d
       1.3712816 -0.2953108 0.02879665 0.073761165
000260 fd be dc 3d 8e c4 4b be 9c 9e f4 3d eb 72 47 3e
       0.107786156 -0.19899198 0.11944315 0.19477431
000270 af be c5 3c fb e9 c0 bd ff 66 b3 bc 8b e8 46 bd
       0.024138777 -0.09419628 -0.021899698 -0.048561614
000280 7a 9e e5 3d 67 a2 6c be 18 f4 49 3d a2 60 40 be
       0.11211868 -0.23108827 0.04930505 -0.18786862
000290 38 5a 9e bd 8c 60 1a be 6d 89 20 3d 8f 86 17 be
       -0.077320516 -0.15075892 0.03919356 -0.14797424
0002a0 a6 0e fd bd 91 1e 80 bc 2c bb 5f 3e dd 76 68 bd
       -0.123563096 -0.015639575 0.21848744 -0.05675398
0002b0 b9 c7 9a bd b1 22 9c bd f2 ac c2 bd cd d5 c5 bd
       -0.07557625 -0.07623804 -0.09505643 -0.0965992
0002c0 11 bb 06 be 1f 9a 89 3d ad 1b a0 be 81 52 79 be
       -0.13157298 0.067188494 -0.31271115 -0.24347879
0002d0 18 43 46 be 26 c3 c1 bc 90 8e ad 3d 37 74 87 3d
       -0.19361532 -0.023652624 0.08474457 0.06613963
0002e0 72 18 f1 3b 4b c8 18 3e 90 e3 bb bd 30 d9 2a bd
       0.0073576504 0.14920156 -0.091742635 -0.041711032
0002f0 20 7f 03 3d 77 9b a8 3e 25 3e 99 bd 38 03 9f 3e
       0.032103658 0.3293111 -0.07482556 0.31057143
000300 1a f2 79 bd 56 d1 01 be aa 50 59 be 0b 8f d8 3d
       -0.0610219 -0.12677512 -0.21222177 0.10574158
000310 81 92 df bc ec 4b 97 3c b2 2c fc bd 11 ed b2 3e
       -0.027291538 0.01846882 -0.123132125 0.34946492
000320 b6 e5 e2 3d d5 23 40 3e 4c 46 e4 bd bd fc fa bd
       0.1107897 0.18763669 -0.111462206 -0.12255237
000330 17 52 33 3e b7 3a 07 3d 11 fe c5 3d 77 86 7d be
       0.17511784 0.03301498 0.096676 -0.24758326
000340 76 e6 c0 3b 09 81 20 be b5 60 38 bd ef c4 57 be
       0.005886848 -0.15674223 -0.045014102 -0.21071218
000350 81 b7 b3 bb 7d 20 7b bc 7a 44 c4 bd e0 fe 3a be
       -0.005484522 -0.01532757 -0.09583373 -0.1826129
000360 45 e9 04 3e 75 fb 83 3d 8c 99 14 be 39 95 84 bd
       0.1297961 0.06444446 -0.14511698 -0.064737745
000370 8b 53 a0 3b c7 a5 c6 bd a8 d0 a9 bc c0 3f 9d ba
       0.0048927716 -0.09699588 -0.020729378 -0.0011997148
000380 f6 1f 6c 3e 28 e2 94 bc 28 16 da 3d dd f8 09 3d
       0.23059067 -0.018174246 0.10648757 0.0336846
000390 b9 01 85 be b7 11 aa be f8 73 0b b9 c6 03 3a 3e
       -0.25977877 -0.3321664 -0.00013299275 0.18165502
0003a0 73 af 1d be 7d fe b8 3c d7 a0 87 be 43 5e 7c bb
       -0.1539896 0.022582287 -0.264899 -0.0038508333
0003b0 0c ed 7f bd 70 01 4c 3d e3 9c 8d bd 38 78 19 be
       -0.062481925 0.04980606 -0.069146894 -0.14987266
0003c0 8d 68 3c 3d f5 b2 a3 3d 23 f3 0c bd b4 9a d5 3c
       0.045998145 0.07993118 -0.03441156 0.026074745
0003d0 54 81 2c be 99 f0 ad 3d 98 22 9d bd 2d 18 d8 3d
       -0.1684621 0.08493156 -0.07672614 0.10551486
0003e0 a2 94 d9 be b2 d7 bf 3d d0 e7 38 3d 89 9d a2 bd
       -0.4249621 0.093673125 0.04514295 -0.07940204
0003f0 c7 46 0e 3e d8 b0 05 3d 0c ab 94 3c ea b3 12 3e
       0.13894187 0.032639354 0.018147968 0.14326444

lstm.weight_hh_l1 f4 [200, 50]
000000 cf e3 a2 bd ed 7e 3a be ed 06 a2 be d1 ae b3 3c
       -0.07953607 -0.18212481 -0.3164591 0.021933945
000010 78 b3 b8 3d 77 e8 7a be 82 e6 be 3e 52 d2 3c 3f
       0.09018606 -0.24502741 0.37285239 0.73758423
000020 dc 67 a8 3e ae b2 64 3d 30 40 20 be ed 2a 0d 3e
       0.32891738 0.055834465 -0.15649486 0.13785906
000030 39 b4 d5 bd ee 85 4d bd d7 da e0 ba 95 de 02 be
       -0.10434765 -0.050176553 -0.0017155063 -0.12780221
000040 a8 ed 1c be 42 92 b0 3c dd 97 89 be 02 ca d4 3d
       -0.15325034 0.021554116 -0.26873675 0.103900924
000050 af e7 69 3e 7f d5 f3 3d 5a 17 e0 3d f6 b1 a0 bd
       0.22842287 0.119059555 0.10941954 -0.07846443
000060 0e 2f 13 bd f6 b0 fa 3d 23 10 c5 be ec ba 35 bf
       -0.035933547 0.12240784 -0.38488874 -0.70988345
000070 9b ff 21 bd e4 7e 48 3d a1 c4 9f be 92 70 50 be
       -0.039550405 0.048949137 -0.31204703 -0.20355442
000080 17 b3 99 3d 26 4e d0 bd 06 54 36 3e 9c e8 e1 bd
       0.07504862 -0.10171156 0.1780549 -0.11030695
000090 db 36 85 bc 3b 72 cd 3d 37 b7 10 be 08 bb af 3d
       -0.016261509 0.10031553 -0.14132391 0.08580595
0000a0 00 27 d2 bc ef 9b f3 bd ba ad cb 3c de ce fa 3d
       -0.025653362 -0.11894976 0.024863113 0.12246488
0000b0 5e b4 95 bd b2 b8 40 be e2 9b cf 3e ba b7 d7 3d
       -0.07309793 -0.18820456 0.40548617 0.1053309
0000c0 a3 b7 b3 3d 99 ed 45 bd c1 0f 9e be 27 d3 cc be
       0.0877526 -0.048322294 -0.30871394 -0.40004846
0000d0 fb 65 f0 be 2d 90 01 be a9 9c 4d 3e c6 a4 eb be
       -0.46952805 -0.12652655 0.20079292 -0.4602415
0000e0 d1 56 90 3e e4 01 9f 3f 52 4d c0 bd c0 d6 62 3d
       0.28191236 1.2422452 -0.09389748 0.055380583
0000f0 5b 8e 2a bd 89 91 7e 3e 27 26 9d be 68 70 da bd
       -0.041639667 0.24860205 -0.3069317 -0.10665971
000100 53 db d5 bd f5 6c 8c be 58 1f 20 be 2c 69 2f 3e
       -0.104422234 -0.27426878 -0.15636957 0.17129964
000110 56 28 83 be 2b 0c b6 3e 7a 66 7f 3e b9 4e 33 3e
       -0.2561671 0.35556158 0.24941435 0.17510499
000120 ad 37 7f 3d a9 72 35 be ae 2b 54 be 0e 7f 0e 3e
       0.062308956 -0.1771952 -0.20719787 0.13915655
000130 56 07 b5 be d9 75 f8 be 39 79 1f 3d ad c6 47 3e
       -0.3535716 -0.4852741 0.038933966 0.19509383
000140 39 d0 ba be 8c 8f ba 3e 55 41 ac 3d b0 e7 08 be
       -0.36486986 0.36437643 0.084108986 -0.13369632
000150 d5 b1 14 3e eb 57 af be 53 99 04 3f c8 9e e5 3e
       0.14520963 -0.34246764 0.51796454 0.44847703
000160 ea 44 2b be 46 be d1 3d de d8 64 3c 1b 5b 85 bd
       -0.16725507 0.1024137 0.013967721 -0.065115176
000170 d1 b0 a4 3d 1c 67 5d 3e 78 24 cd bd e5 24 d7 bc
       0.080415376 0.21621364 -0.100167215 -0.02626271
000180 b8 eb ba 3e 4d 37 25 3d 97 90 3d 3e 93 23 2b 3e
       0.36507964 0.040335942 0.18512188 0.16712789
000190 c2 34 46 bf 7f c2 84 bf a0 f4 e4 be 00 8e 7d be
       -0.7742425 -1.0371855 -0.44717884 -0.247612
0001a0 95 43 fa 3c 57 d9 07 bf 43 16 44 3f 82 db 1a 3f
       0.030549804 -0.5306601 0.7659647 0.6049119
0001b0 ef 60 fe be a5 e1 cc 3d 82 f4 06 bd 1e d4 c2 3e
       -0.4968333 0.10003976 -0.032948025 0.38052458
0001c0 1a be cb be 34 07 1d 3e 03 6c da be 18 e9 47 be
       -0.39793473 0.15334779 -0.4266053 -0.19522512
0001d0 47 86 d1 be b8 6e 67 3e 48 f8 c3 be e1 9c 25 3f
       -0.40922758 0.2260083 -0.3827536 0.64692503
0001e0 9a 09 c0 3e 07 9d 24 3f db 66 94 3e 76 02 ad be
       0.37507325 0.64302105 0.28984722 -0.3379094
0001f0 4f 99 de bd dc ae 42 3f 46 b1 2d bf 79 0a 10 be
       -0.10869085 0.76048064 -0.6784862 -0.14066495
000200 04 a6 2f 3f cf c9 80 3e 47 5f 54 bf d3 87 0c 3f
       0.68612695 0.25153968 -0.8295788 0.5489475
000210 6f c9 1a 3e 6b f2 a9 be 2f 78 52 3f 17 e8 39 bf
       0.15115903 -0.33192763 0.82214636 -0.72619766
000220 3f a4 fb 3e 3f a7 04 3f 74 9c 7c be d8 12 c5 3e
       0.49148747 0.518177 -0.24669057 0.3849094
000230 c8 da e8 bd 5b 68 4b bd 2b 65 36 be fc cc a8 be
       -0.11369854 -0.049660068 -0.1781203 -0.3296889
000240 c2 39 08 bf 75 24 be be ec 81 b8 3f 68 3f 35 3e
       -0.5321313 -0.3713719 1.4414649 0.17699969
000250 51 05 57 be f1 4c d0 3e 75 ea 25 3d 0a d1 2b be
       -0.20998122 0.40683702 0.0405068 -0.16778961
000260 84 70 e4 3d 31 c8 be bd 2d 13 7c bd 33 00 bc 3d
       0.11154273 -0.09315527 -0.061541725 0.091797255
000270 1a e7 5f bd c9 4b 19 3d a0 02 b0 bb 65 1d fc 3d
       -0.054663755 0.03742579 -0.0053714067 0.12310294
000280 4b 78 47 3b 22 81 0a 3d 9b b1 f0 3c c2 40 34 3c
       0.003043669 0.033814557 0.029381564 0.011001768
000290 99 a7 09 3e 20 4a 7e 3e 65 86 a9 3c a0 71 01 bd
       0.1344284 0.24832964 0.020693967 -0.031602502
0002a0 85 50 41 3c ed bc 13 be a7 60 c6 3d e4 68 21 be
       0.0117989825 -0.14427538 0.09686404 -0.15762669
0002b0 1b dd 0f 3d 59 c1 8a 3d fc 92 8d bd fd 05 92 3c
       0.035122972 0.067751594 -0.06912801 0.017825121
0002c0 be 97 3f 3e 4f 2f 93 3e cb cc ee bd b1 d2 c3 bd
       0.18710229 0.2874703 -0.11660155 -0.095616706
0002d0 13 cb f1 3d ee d8 22 bd 55 fb aa 3c 2c cd 88 bd
       0.118063115 -0.03975766 0.020871798 -0.066797584
0002e0 11 c1 0d 3e dc 79 51 3d 41 58 1f 3d 69 60 1e be
       0.1384318 0.051141605 0.038902525 -0.15466465
0002f0 06 93 d2 ba bd 98 bb 3d b7 2c 9a 3b 87 23 fb 3a
       -0.0016065545 0.09159992 0.0047050375 0.0019160368
000300 4b 2c dc 3d 67 5d 8c be f8 ac fa bb df 35 fe 3d
       0.10750636 -0.2741501 -0.007650014 0.12412619
000310 f9 a7 b8 3c 64 82 46 bd 59 79 01 be e6 34 83 3d
       0.022541033 -0.048464194 -0.12643947 0.06406574
000320 b9 4d 54 be e5 f9 80 bb 54 da 6c 3e da ad bc bd
       -0.20732774 -0.0039360397 0.2313016 -0.09212847
000330 ef ad 57 bd 89 52 14 3d 87 77 a9 be c1 fb d9 be
       -0.05265611 0.036211524 -0.33099005 -0.42574885
000340 2c 1a 70 3b 2f a9 00 be c9 81 30 3e 33 e2 8b 3d
       0.0036636693 -0.12564538 0.17237009 0.068302535
000350 10 f7 c3 3d a9 7b 5c 3e ea 58 09 3e 39 d5 8a 3e
       0.09568608 0.21531548 0.13412824 0.271158
000360 98 48 ec bc 62 cb 1d bc 39 34 24 bd 40 89 b0 be
       -0.02884321 -0.00963101 -0.040088866 -0.34479713
000370 40 fc 9a bd b0 ec 3a 3e 13 3e 0d 3e 24 93 cf 3b
       -0.07567644 0.18254352 0.1379321 0.006334679
000380 ce 3e e1 bd a1 16 e5 bd ef dd 2e bd 16 8b a4 bc
       -0.10998307 -0.11185957 -0.04269212 -0.020085853
000390 ad b3 e7 bd 51 22 b8 3d b2 56 6b bc 6a b5 cc bd
       -0.11313567 0.0899092 -0.0143639315 -0.099955395
0003a0 eb f6 96 bd 47 88 d4 3c 59 b5 55 3d f2 cb 0f 3e
       -0.073713146 0.025943888 0.0521749 0.14042643
0003b0 fd 5a 95 3d b3 d1 b2 bd 59 d8 91 3d 12 06 c8 3d
       0.07292745 -0.08731403 0.07121343 0.09766783
0003c0 81 23 9f 3d 30 de ed bd 11 20 98 be 06 6d 2d be
       0.07770444 -0.116146445 -0.29711965 -0.1693612
0003d0 e3 e8 8d 3d 92 33 7e bc 97 67 65 bd 34 e2 1c bd
       0.06929185 -0.015515225 -0.056006994 -0.03830166
0003e0 ee 47 5b 3d 22 8f d0 bd 29 8b 9c bd 93 28 dd bd
       0.053535394 -0.101835504 -0.0764373 -0.107987545
0003f0 14 a5 10 3d fe 4f f9 3c 43 64 d2 3b ae f9 3b be
       0.03531368 0.030433651 0.0064206435 -0.18356964

lstm.bias_ih_l1 f4 [200]
000000 f1 73 30 3d 41 b5 5f 3e 35 0f 6f ba a9 1a d8 bd
       0.04307932 0.21846487 -0.00091193925 -0.1055196
000010 3a 4a af 3d ba a0 23 bd c5 50 71 3c 9a f3 bb 3c
       0.085590795 -0.039948203 0.01472873 0.022943307
000020 a0 6b c9 3d 35 08 0b 3d 68 19 d5 bd 5c 83 b4 3d
       0.09834981 0.033943374 -0.104052365 0.08814117
000030 4d 72 b5 bd b0 08 0e 3e 42 24 ba 3d 51 9d 1e 3e
       -0.08859692 0.13870502 0.09088947 0.15489699
000040 11 c1 b5 bc 94 d8 ce bd 88 a8 22 3e 10 09 a5 bd
       -0.022186788 -0.10099903 0.15884602 -0.08058369
000050 27 04 8e bd 74 b3 f1 3d b3 11 b2 bd 8e c0 0c be
       -0.06934386 0.11801806 -0.08694782 -0.13745329
000060 69 ac 02 bd 87 2f f8 3d 86 ac 8e bd aa ed 8a bd
       -0.031902704 0.1211844 -0.069665 -0.06783612
000070 c7 41 1c 3d 87 6f b1 bd 26 50 a3 bc ff e5 f0 bc
       0.038148668 -0.0866385 -0.019935679 -0.029406546
000080 a8 10 a5 bd bb 19 07 be 35 aa a1 3d 79 06 87 3d
       -0.080598176 -0.13193409 0.078937925 0.065930314
000090 4b 3e 77 3e b1 e6 8c 3e b3 a3 b0 bd ff c4 bd bd
       0.24144857 0.27519754 -0.08624973 -0.0926609
0000a0 74 a7 a9 bd a1 38 7d 3d 1d 9d c8 bd d8 b6 33 3e
       -0.08283892 0.061821584 -0.09795592 0.17550218
0000b0 a7 95 39 39 d0 36 d3 3d 6a 66 2a 3e 1a c5 53 be
       0.00017698725 0.10313189 0.1664063 -0.20680657
0000c0 ec 54 01 bd 38 aa bc 3c f8 bb 2d bd 8e c7 4a 3d
       -0.03157513 0.023030385 -0.04241559 0.049506716
0000d0 f3 58 18 3d d8 99 85 3d b7 82 fd b8 6b f7 7a 3d
       0.037194204 0.06523484 -0.00012088328 0.061271112
0000e0 49 a4 bf 3d c9 f4 84 3d c3 6e bf bc a3 5d a2 3d
       0.09357507 0.064920016 -0.023368245 0.07928016
0000f0 5f de a0 bd 45 76 9c 39 b2 99 ce bc 73 d1 da bd
       -0.07854914 0.00029842756 -0.025219772 -0.106844805
000100 81 5a f2 bd e3 ee 10 be 54 56 95 3d e1 1c 06 be
       -0.118336685 -0.14153628 0.072918564 -0.13096954
000110 fe 52 a9 3d 42 cf bc bd ef 3a 52 bd 05 b8 d5 bd
       0.08267783 -0.09219219 -0.051325735 -0.104354896
000120 39 ee 17 3e d3 41 37 bd 18 45 06 bd f4 15 72 3d
       0.14836968 -0.04474051 -0.032780737 0.059102967
000130 5a 57 d6 bd 5d ba ec 3d e4 24 03 3e 5a e1 b2 3d
       -0.1046588 0.115589835 0.12807041 0.08734389
000140 9b 4d b5 bc 93 29 08 3e 9a 51 da 3d cf 4b a6 3d
       -0.022131732 0.1329711 0.106600955 0.08119928
000150 65 33 bd bb 7d dd f6 3c 51 c1 80 3d bd 6b 0f 3e
       -0.005773949 0.03013491 0.06286872 0.14005943
000160 ea 20 85 3d 76 61 5e bd f9 8a 9b bb 82 54 ba 3d
       0.065004185 -0.054292165 -0.0047467914 0.0909815
000170 8c 0c 0a 3d 30 36 1d be 05 c5 e2 bc 42 69 0c bd
       0.033703372 -0.15352702 -0.027681837 -0.03428007
000180 42 e0 37 bd d6 34 1d bd 47 a7 f3 bc 2b 04 5c 3d
       -0.044891603 -0.038380466 -0.02974285 0.053714912
000190 8c 21 c3 3d 04 e2 10 3c af fb 0e bc 25 f8 37 3d
       0.09527883 0.008842949 -0.008726998 0.044914383
0001a0 b7 93 86 bc e5 3e a7 bd 1a 01 b0 bd 89 44 e3 3d
       -0.016427858 -0.08166293 -0.0859396 0.110970564
0001b0 28 64 f9 bd 4d 7f 11 3e 21 85 e3 3c b6 c3 00 bd
       -0.121773064 0.14208718 0.027773442 -0.031436644
0001c0 7e 76 87 bd 23 b7 5d bd 02 0d b1 bd 55 05 8d bd
       -0.066143975 -0.05412973 -0.08645059 -0.06885783
0001d0 77 8a a9 bd 6e c9 0a 3e 20 ef b6 bd f7 8f 9e bd
       -0.08278363 0.13553402 -0.08932328 -0.07742303
0001e0 0b a4 f7 bc 34 85 69 3d 33 d2 ac 3d 76 da 08 be
       -0.030229589 0.057011798 0.0843853 -0.13364586
0001f0 23 0e 27 bc a5 87 d7 3d f5 65 a3 3d 90 a1 0b 3e
       -0.010196242 0.10523919 0.07978431 0.1363585
000200 a1 67 c4 bd 97 c4 41 bd 3d 9e d2 3d 39 46 00 3e
       -0.09590078 -0.047306623 0.10284088 0.12526788
000210 e8 06 af 3c 24 d6 01 be 2d 95 aa bd 46 0f dc 3d
       0.021365598 -0.12679344 -0.08329234 0.10745101
000220 57 90 17 be 92 90 92 bd bd ed 84 bd 59 c4 df 3d
       -0.14801155 -0.07156481 -0.064906575 0.10926122
000230 db 9e dc 3c d9 84 de 3d 58 b9 58 bd a6 d9 b4 3d
       0.026931217 0.108651824 -0.052911133 0.08830576
000240 5c 99 97 3b d6 c6 e9 bd 79 c8 c6 bc 6c e7 d9 3d
       0.004626436 -0.11414878 -0.024265515 0.10639843
000250 7e 3a 8e 3d 04 9f d1 bd 17 dd 91 3d 78 de 21 3d
       0.0694475 -0.10235408 0.07122248 0.039518803
000260 86 fa 84 3e 04 b3 02 bd 38 c6 12 3e a7 28 00 3e
       0.25972384 -0.031909004 0.14333427 0.12515508
000270 50 28 19 3e 04 b6 d8 3c 36 fc 18 bc 69 b1 06 3e
       0.14956784 0.02645398 -0.0093374755 0.13153614
000280 d7 25 34 bc 7e d5 eb 3d b1 60 04 3e 9a 6c 03 3e
       -0.01099535 0.1151533 0.1292751 0.12834397
000290 7a f1 19 3d 53 f5 8a bd b4 48 3f 3d db 50 d1 3d
       0.037583806 -0.06785073 0.046700194 0.102205
0002a0 3c 85 e4 3d ab c0 50 bc df 0e 1a bd 61 15 11 3e
       0.11158225 -0.012741248 -0.03761184 0.14168312
0002b0 d8 33 c3 3d 78 ba b4 3d 8b 40 19 3e ae 31 a4 3d
       0.09531373 0.088246286 0.14966027 0.08017288
0002c0 c8 de 40 3d f8 6c 9b 3e dd c0 b7 3d f6 84 9a bd
       0.04708746 0.30356574 0.089723326 -0.075448915
0002d0 44 a8 46 bd 89 c5 b0 35 b9 c7 f0 3c 5e e1 fe 3c
       -0.048500314 1.3170512e-06 0.02939211 0.031113323
0002e0 ed dc 8d 3d d7 e7 d5 3d df 99 da 3d e0 a4 86 3e
       0.06926904 0.104446106 0.1067388 0.26297665
0002f0 2b 8b 05 3e 22 26 75 3d fd d3 c3 3d 2c 47 b5 bd
       0.1304137 0.05985082 0.09561918 -0.088514656
000300 3e f9 05 bd 4f 92 b2 bc 31 fe 0c 3d d7 35 a6 bd
       -0.0327084 -0.021798281 0.034422103 -0.08115738
000310 ed 9b 72 3e 90 f4 67 3d a2 4d 07 bd 39 05 11 3e
       0.23692293 0.056629717 -0.03303302 0.14162149

lstm.bias_hh_l1 f4 [200]
000000 16 03 4a 3e cf 8d a2 3c ed 9f 98 3d 75 8c 04 be
       0.1972774 0.01984301 0.074523784 -0.12944205
000010 e4 b5 56 bc 80 39 2c bb 74 c6 00 3d 24 32 62 3d
       -0.01310489 -0.002627939 0.03143926 0.0552236
000020 ee 8e fe 3d f4 c2 bd bd b0 c6 f8 bd 5f f7 8a 3d
       0.124296054 -0.092657 -0.12147272 0.067854635
000030 a1 38 58 3d 16 50 9c bd ae d3 fe 3d 9e 7f 44 3e
       0.05278838 -0.07632463 0.124427184 0.19189307
000040 5b 17 c1 3d cb 7e f2 3d 08 00 2f 3d 00 26 dc 3c
       0.09428283 0.1184059 0.04272464 0.026873589
000050 bc 5e 99 3d 2a 88 19 3e 49 d7 c4 3d 92 69 c2 3c
       0.07488772 0.14993349 0.09611375 0.02373198
000060 b4 bc bb 3d 45 99 d9 3c 6f 7d 57 bd 97 b7 69 3d
       0.09166852 0.026562342 -0.052609857 0.05705985
000070 89 99 e9 3d f2 82 47 3d ae e1 c1 3d 26 2c 03 3e
       0.11406238 0.048708864 0.09466873 0.1280981
000080 8e 3b ac bd 60 9d a4 3c 3e bd 38 3e b1 c6 cf 3d
       -0.08409797 0.020094573 0.1804094 0.10145319
000090 bb cf 26 3e 2c 31 e9 3d 7d e6 39 3d f9 9a 34 bd
       0.1629018 0.11386332 0.045385826 -0.044093106
0000a0 56 4d 8a bd 55 05 d2 3d 76 7d 4d 3d bb 54 8b 3d
       -0.06753032 0.10254923 0.050168477 0.068032704
0000b0 2b f4 96 3d d7 32 fb ba ee 08 70 3e 44 3c 65 be
       0.0737079 -0.0019164932 0.23440906 -0.22386271
0000c0 ac 14 92 3b 8d 50 81 bd b5 30 8f 3d 14 1e a9 3d
       0.0044580307 -0.06314192 0.06991712 0.0825769
0000d0 5b 8f f0 3d 3c 64 99 bd fe 36 cd bd 90 7c 1f be
       0.11746093 -0.07489821 -0.100202546 -0.1557486
0000e0 bf 16 1b 3c e0 4e 31 bd ce fe 7b be 99 2c 85 3c
       0.009465872 -0.04328811 -0.24608919 0.016256617
0000f0 75 8b fb 3d 05 ed e7 3d 8f 24 92 3c 09 b7 c9 3d
       0.12282459 0.11324505 0.017839698 0.09849364
000100 9c 9b 0f 3e 47 74 4d 3d 36 9c 15 3c 02 3e a9 bd
       0.14024204 0.05015972 0.009131482 -0.0826378
000110 50 f2 0d 3e 3c 52 e0 3d 42 45 89 3d 9c 52 29 3e
       0.13861966 0.10953185 0.06702663 0.16535419
000120 7b 67 07 3e ab 32 d2 bd f7 8f 09 3e fb 27 bd 3d
       0.13223068 -0.102635704 0.13433824 0.09236141
000130 b1 66 80 3c 48 2b 60 bd a4 75 ba 3d bf 7a e1 bd
       0.015673967 -0.054728776 0.091044694 -0.1100974
000140 9f ae 27 bc d1 e3 01 3e ee 95 75 3d 33 f9 ce 3d
       -0.010234504 0.12684561 0.059957437 0.10106125
000150 ae 0d 82 3d 5d 03 2d 3c a5 8a 1f bc d1 47 fc 3d
       0.063502654 0.010559884 -0.009737645 0.123183854
000160 40 96 cc 3d 6c bc 23 bd e6 8c 95 3d 27 71 fb bd
       0.099895954 -0.039974615 0.07302265 -0.122774415
000170 2e 52 21 be 3c 05 00 be 1e 76 da bd bc bd 45 ba
       -0.15754005 -0.12501997 -0.1066706 -0.0007543226
000180 22 b3 77 bd 30 37 4c be 0a 01 ac 3d 94 61 e0 bd
       -0.06047357 -0.19942927 0.08398636 -0.109561116
000190 b1 03 22 be d3 b1 01 be 40 88 c9 bc 62 5b 1a be
       -0.1582172 -0.12665491 -0.024601102 -0.15073922
0001a0 ac 4b c6 3d 25 9d df 3d d5 98 dc ba 32 1b 04 be
       0.09682402 0.10918645 -0.0016830215 -0.12900999
0001b0 0f ce 99 be ba 4c 7d 3d 4b 31 03 3d e7 9c ec 3b
       -0.30040023 0.06184075 0.03202943 0.0072208527
0001c0 e5 29 e5 bd 20 ac 9c bd e5 9b 03 3d 50 29 78 3d
       -0.111896314 -0.07650018 0.032131094 0.060586274
0001d0 17 d5 d7 bd d2 74 00 3d 69 ee 05 be 6d 7a f3 3c
       -0.105386905 0.03136141 -0.13079228 0.029721463
0001e0 52 3e b1 3d dc 74 33 3d 05 9c 9b 3d a3 60 dc bd
       0.08654465 0.043812618 0.07598118 -0.107606195
0001f0 f1 8e 13 be f0 b1 cf bc 50 38 89 bd 3f e6 5f 3d
       -0.14409997 -0.025353402 -0.06700194 0.05466294
000200 b9 23 17 bd ba b5 d9 3d 99 5a fe bd eb 30 55 bd
       -0.036899302 0.10630365 -0.12419624 -0.052048605
000210 fd 62 b5 3d 56 b6 06 be 21 54 0d 3e 36 1d f4 bd
       0.08856771 -0.13155493 0.13801624 -0.11919634
000220 bb 0c 80 3d 2f d0 ff bd 38 f8 f8 bc a8 f0 80 3d
       0.06252428 -0.1249088 -0.030391797 0.062959015
000230 65 07 b0 3d cb 85 81 3d 56 24 ef bc 98 54 ce bd
       0.085951604 0.06324347 -0.029192131 -0.10074729
000240 67 27 32 bd 46 6a 9b bd 20 21 ea 3c 3b f3 95 bd
       -0.04349461 -0.075886294 0.028580248 -0.07321783
000250 1d ff 10 3d 2b 09 a5 bd 6e ca 33 3d b6 fb 8f 3e
       0.035399545 -0.08058389 0.043894224 0.28121728
000260 45 56 4d 3e 36 0b ad 3d da 66 9e bd 69 6b 8c 3d
       0.2005244 0.08449404 -0.07734461 0.06856424
000270 b6 72 82 3d 3d 88 ff 3d 1a 49 81 bd 1e 51 1c bd
       0.063695356 0.12477157 -0.06312771 -0.038163297
000280 58 d0 af ba 23 7a 15 be 98 a9 ac bd 15 2f 04 bd
       -0.0013413532 -0.14597373 -0.08430785 -0.032271463
000290 9f 83 96 3d bd f1 46 3e f1 b1 c0 3d b3 95 8d 3d
       0.073493235 0.19428153 0.0940894 0.069133185
0002a0 dd 4b 12 3e 92 8a 78 3e 72 88 c3 3d a8 0c e5 3d
       0.14286752 0.2427161 0.09547509 0.111840546
0002b0 d4 88 f7 bd 79 fa 06 be 49 ef 01 3d 48 05 1d 3e
       -0.12086645 -0.13181485 0.03172234 0.15334046
0002c0 55 5d fe 3c e5 d6 38 3e f9 21 87 3d 73 f7 55 bd
       0.031050364 0.18050726 0.06598277 -0.05223794
0002d0 6b a5 56 bd 73 2e 37 3c e2 a6 b8 bd 3f c3 05 3e
       -0.05240385 0.011180508 -0.09016205 0.13062762
0002e0 d3 8d fc 3d a9 ce e2 3d 5a 39 35 3e 3d 55 51 3e
       0.12331738 0.110745735 0.17697659 0.20442672
0002f0 b2 1a 81 3a 23 60 d6 3d 49 81 92 3d f3 73 3b 3c
       0.0009849875 0.104675554 0.071535654 0.011441219
000300 f3 22 00 be 02 b2 39 bc 26 fb 98 bd f7 55 04 3d
       -0.12513332 -0.011333944 -0.07469778 0.032308545
000310 e1 06 43 3d 81 34 30 3e 62 9f 50 3d 45 e2 a7 3d
       0.047613982 0.17207529 0.05093325 0.08197454

fc.weight f4 [1, 50]
000000 96 da 7c be bb 91 40 bd 88 c4 80 be 32 e8 3c bd
       -0.24692759 -0.04701398 -0.2514994 -0.046119876
000010 b5 8a 8c 3d db f1 1e be 52 1f db 3d 4e 3b ba be
       0.06862394 -0.15521948 0.10699333 -0.3637337
000020 a5 04 02 3f b2 6e 06 3e 10 97 5c bd 74 c0 5a 3e
       0.50788337 0.13128164 -0.053855002 0.21362478
000030 57 9a df bd fe 44 6f 3d 90 72 2d bd f4 81 3d be
       -0.1091811 0.058415405 -0.042345583 -0.18506604
000040 0a 8d ee bd 2a 50 30 3e 33 c4 fd bd 10 22 05 3e
       -0.11647995 0.1721808 -0.12390938 0.13001275
000050 4e 30 3b 3e 29 b2 09 3e 9b c6 e1 3d 7f c3 38 bd
       0.18280146 0.13446869 0.11024209 -0.045108315
000060 23 a8 0a be b8 dc a1 3d 6e 97 0a be ee b1 00 bf
       -0.13540702 0.07903427 -0.13534328 -0.502715
000070 b9 15 9f ba 75 e4 88 bd e2 cd c5 bc d2 48 8c be
       -0.0012137211 -0.066842 -0.024146024 -0.27399307
000080 26 bd 00 3e 32 07 06 bd 6b 88 cf 3d 13 01 38 bd
       0.12572154 -0.032721706 0.101334415 -0.0449229
000090 9e 1a 74 be 5b a2 14 3e 83 2b 50 be 57 ba 2c 3e
       -0.23838279 0.14515059 -0.20329098 0.16867958
0000a0 2d b7 93 bd 9e 45 34 be 76 98 96 3d 8b 3a e1 3e
       -0.072126724 -0.17604682 0.07353298 0.43989977
0000b0 55 bb 01 be 58 2d 6c bd 25 73 bb 3b d9 fd fb be
       -0.12669118 -0.05766043 0.0057205134 -0.49217108
0000c0 d4 ad d1 3d be 57 19 3c
       0.10238233 0.009359298
