modelLSTM.pth (torch, 126562 bytes, 9 tensors)

lstm.weight_ih_l0 f4 [200, 1]
000000 ee 34 98 3e eb 13 d4 3e 6c 8a 82 3e 10 14 4d 3d
       0.29727882 0.41421446 0.25496233 0.05006796
000010 b1 74 4f 3e c0 1b 8c 3e a9 3a 9a 3e 80 92 26 3f
       0.20259358 0.27364922 0.3012288 0.6506729
000020 05 24 b6 3e 10 51 a4 3f 45 b5 29 3f 19 87 48 3f
       0.35574356 1.2837238 0.6629222 0.7833114
000030 8c c3 22 be 61 75 02 3f 09 ef 8e 3e e4 7b 82 3e
       -0.15894908 0.50960356 0.27916744 0.25485146
000040 2f ba 07 3e 50 c5 99 3f 88 05 15 3e 7c 88 e6 3e
       0.13254617 1.201334 0.14552891 0.45026004
000050 b2 e4 9b 3e 73 e2 a9 3e a9 82 9f 3f 0a 75 7c 3e
       0.30447918 0.3318058 1.2461749 0.24654022
000060 60 06 9b 3d ee b7 00 3e ca 6c 66 3f 67 a0 13 3f
       0.07569575 0.12570164 0.9000975 0.5766663
000070 99 e6 9f be 9f 7c 8a 3e 43 9e ab 3e 4e 1d 18 3f
       -0.3123062 0.27048203 0.33519182 0.59419715
000080 7a 60 13 3e d8 0f 09 bd 73 93 97 3e c8 18 d0 3e
       0.14392272 -0.033462375 0.29604682 0.40643907
000090 3a b3 29 3e 59 45 df bb 50 9b c3 be 32 5d 2a 3f
       0.16572276 -0.006813687 -0.38204432 0.66548455
0000a0 a4 6a e2 3e 90 c9 7f be 11 b6 2b 3e 83 80 ad 3d
       0.44221985 -0.24979234 0.16768672 0.08471777
0000b0 e7 3b a2 3d 8c 6f 38 be 3e ee b2 bf 35 48 0a 3f
       0.07921582 -0.18011302 -1.3978956 0.5401643
0000c0 61 16 65 3d e3 88 fd 3e 26 21 b8 3d 96 04 91 3e
       0.055929545 0.495185 0.089906976 0.2832381
0000d0 68 90 f7 3e 41 fe 53 3c 9f b8 3c 3e 04 17 10 3f
       0.4835236 0.012939037 0.18429802 0.5628512
0000e0 2f 12 bd 3e ea 0f 27 3f a4 bf 90 3e f0 9f 79 bf
       0.36927935 0.6525866 0.2827121 -0.9750967
0000f0 c4 8b 2a 3f 99 fe 0f 3f 69 31 2f bf 9d de d3 3e
       0.66619515 0.5624786 -0.6843477 0.41380778
000100 df e9 ca 3e 87 f6 93 3e e9 a1 04 3d 36 0e 73 3f
       0.39631554 0.28899023 0.032380972 0.9494356
000110 97 1e 8c 3e 94 2f 0a 3f 14 4d e7 3e b3 96 05 bf
       0.27367088 0.5397885 0.45175993 -0.52183074
000120 e2 32 96 bf e9 52 20 3e 64 c0 be 3d 0e 76 01 3d
       -1.1734278 0.15656628 0.09314039 0.031606726
000130 1c 31 87 bf 93 9b 40 bf a6 2d c5 be d0 da 62 3e
       -1.0561862 -0.7523739 -0.3851139 0.22153783
000140 29 40 bf bd 03 2e 87 3e d1 c1 f3 be 6a e5 bc bf
       -0.093384095 0.26402292 -0.47608808 -1.4757512
000150 c2 08 bd 3d b1 37 df 3e c1 8c a9 3e 57 27 32 3f
       0.09230186 0.43597177 0.331152 0.6959128
000160 f4 5e 29 bf 15 82 d3 3e 24 10 21 3e 3d 76 f1 3e
       -0.6616051 0.41310182 0.15728813 0.4716052
000170 88 02 1e 3e 9a 7b d9 3f b7 d1 7c 3d 1e ca c2 be
       0.15430653 1.6990845 0.061723437 -0.38044828
000180 22 d0 4d 3e fd 7d f5 3e d9 f6 4c 3e 57 02 ea 3e
       0.20098928 0.47947684 0.2001604 0.4570491
000190 c9 be b9 3d 7a 3e c7 be 33 8c d2 3e 91 40 05 be
       0.090695925 -0.38914853 0.4112259 -0.13012911
0001a0 8d 96 9a 3e 48 69 d4 3e 7a 27 e8 3e d0 d5 00 3f
       0.30192986 0.41486573 0.45342618 0.5032625
0001b0 60 7d ce 3e 90 ec b2 3f 35 59 ec 3e b0 c7 2f 3f
       0.4033003 1.3978443 0.4616181 0.68664074
0001c0 37 0d 3c 3e 9d 9b 0f bf da 09 88 be 20 74 af 3e
       0.18364416 -0.5609682 -0.26570016 0.34268284
0001d0 6e cd 96 3d f2 16 07 bf 6f 61 d6 3e 83 bd 87 3e
       0.07363401 -0.52769387 0.4187121 0.26511773
0001e0 c2 74 a2 3e d5 f4 e5 3e 65 00 16 3f 08 20 50 3e
       0.31729704 0.44913355 0.5859435 0.20324719
0001f0 ee 0a d3 bd 05 2e 98 3e 9a 7b 05 bf 07 6d cb bd
       -0.10304819 0.2972261 -0.52141726 -0.09932905
000200 ff 83 99 be 9d d7 73 3e 92 2b 18 3d c7 63 f2 be
       -0.29983518 0.23812719 0.037150927 -0.4734175
000210 e8 1b a3 3e 01 ba 9f be c1 bc 90 3e 01 51 08 bf
       0.31857228 -0.31196597 0.28269008 -0.532486
000220 c8 93 3e 3e 22 32 27 bd 33 b6 f2 3e 15 73 2e bf
       0.18611062 -0.040819295 0.47404632 -0.6814435
000230 53 5c 08 3f cc 3f 92 3e 93 67 49 be 6e f0 82 bf
       0.53265876 0.28564298 -0.19668417 -1.0229623
000240 33 2d 94 be 3e 5f f1 be 9b 7d 5c bf 7e b7 bb be
       -0.28940734 -0.47142977 -0.8612916 -0.3666343
000250 c1 5e 97 be 92 4b f5 3e 18 24 59 3e ff a7 c0 3e
       -0.2956448 0.47909218 0.21205175 0.3762817
000260 d2 b0 e9 3e fe 58 9b 3d 70 1d 03 3e db 23 0e 3f
       0.45642716 0.07585333 0.12804198 0.5552346
000270 98 a7 a1 3e 33 58 45 3f c7 59 01 3f 1f 3b a2 3f
       0.31573176 0.77087706 0.50527614 1.2674292
000280 aa 85 4b 3f 0c 50 5c 3f 3e dd 2b bf 2d 0d ec 3e
       0.7950083 0.8605964 -0.67134464 0.46103802
000290 c5 fd f2 3e 7c d7 b1 3e e1 69 ee 3d a8 18 c7 3f
       0.47459236 0.34734714 0.116412885 1.55544
0002a0 35 b6 a1 3e 05 92 7c 3e 9f 5b cf 3e 5d ab 81 3d
       0.31584325 0.24665077 0.4049959 0.06331513
0002b0 d9 05 77 3f 0c b8 99 3e 72 13 00 3e 36 99 9d 3e
       0.964933 0.3002323 0.12507418 0.30780953
0002c0 2b 6f 26 3f 91 49 f4 3e 89 cb f5 be 47 6e bf 3e
       0.6501338 0.47712377 -0.48006848 0.37388822
0002d0 34 19 f6 3e d7 34 29 3f d0 6d e9 bd 4a 3f 38 bd
       0.48066103 0.6609625 -0.11397898 -0.044982232
0002e0 41 91 cc 3e 47 10 f1 3e d9 af 98 3e db ce 88 3e
       0.3995457 0.4708273 0.2982166 0.26720318
0002f0 88 ae fa be f1 ac 17 3f 50 76 1b 3f 07 94 cd be
       -0.48961282 0.5924826 0.60727406 -0.40151998
000300 0d 74 00 3e 9d fa d2 3e 04 f0 e5 3d 8a dd 75 be
       0.1254427 0.41206828 0.1122742 -0.24010292
000310 96 f5 9e bf c6 b6 05 3f 3e b5 41 3e 15 1d 16 3f
       -1.2418697 0.52232015 0.18916795 0.58638126

lstm.weight_hh_l0 f4 [200, 50]
000000 90 ce d3 3c 28 19 64 be 56 27 e1 3c e0 4f 01 bd
       0.025855333 -0.22275221 0.027484577 -0.031570315
000010 eb fe 32 3e 7a 60 19 bc 90 45 f8 3d 4a 40 35 3e
       0.17480056 -0.009361381 0.12122643 0.17700306
000020 c3 7a 02 3e af c9 0c 3f c5 42 35 3b bc aa 11 3e
       0.12742142 0.54995245 0.0027658206 0.14225286
000030 0e 95 dd 3d 57 d8 5e be 8a 6a 5e 3d aa cf a0 bd
       0.108194456 -0.21762215 0.054300822 -0.07852109
000040 9c b6 17 3e 3b 89 9c 3d 94 90 0f 3d bf 3c ac 3d
       0.14815754 0.07643362 0.03504999 0.08410024
000050 5f 0b 80 3d 5d 07 cd bd 98 aa 45 3e 91 37 ca 3d
       0.06252169 -0.1001117 0.19303358 0.0987388
000060 2b bc 75 bd 69 33 29 3e ab 23 94 bd fd 50 7c bd
       -0.059993904 0.16523518 -0.072333656 -0.061600674
000070 28 29 0e bd f5 e8 d8 bd 7e f1 84 3e 5e fb 3a be
       -0.03470722 -0.10591308 0.25965494 -0.18259951
000080 7a c5 99 bd 84 10 01 be f7 4d 44 3e 00 b3 ad bd
       -0.07508369 -0.12603956 0.19170366 -0.08481407
000090 c5 5d 3e bd d5 24 1c 3d 5e 6c 4e 3d 53 0a ee bd
       -0.046476144 0.038121063 0.050396316 -0.11623063
0000a0 92 05 1f 3d e9 2c 08 3e 5e c0 cd 3c 7a fb af be
       0.03882367 0.13298382 0.025116142 -0.3437155
0000b0 63 1a 49 be 36 ae 60 bd a3 dd bb bd 17 fa b3 bd
       -0.19638972 -0.05485364 -0.09173133 -0.08787935
0000c0 01 a5 cb bd a0 53 af bc 77 e0 2a 3e 8e be 6e be
       -0.09943581 -0.02140218 0.16687189 -0.23314878
0000d0 f5 30 00 3e 56 d0 6a be eb 50 58 3e cc 3f 7f 3e
       0.12518676 -0.22931036 0.21124618 0.2492668
0000e0 55 3b 8f 3e 65 b3 c9 3e 25 43 6c 3e 83 13 85 3e
       0.27974954 0.3939468 0.23072489 0.2599145
0000f0 c4 5c a0 3e d4 9a d2 bc 24 14 9c be 97 7f 7d bd
       0.31320775 -0.025708593 -0.30484116 -0.061889257
000100 28 64 bf be 27 a2 96 3e 80 12 24 3e 0d 3c a3 be
       -0.373811 0.29420587 0.16022682 -0.31881753
000110 c8 b0 96 3e a5 44 56 3e b0 c7 bf 3e f3 9b 29 be
       0.29431748 0.20924623 0.37457037 -0.16563396
000120 97 35 64 bd d9 16 53 3e e6 40 91 be ab 50 42 3e
       -0.05571517 0.20614184 -0.28369826 0.18976085
000130 30 f8 45 3e 50 ea b7 3e 28 dd 5e 3e 9d 78 90 3e
       0.19332957 0.35920954 0.21764052 0.2821702
000140 6f 0f 30 3e 26 15 cc bd 4d 21 41 be 7c ac 8e 3e
       0.17193387 -0.09964971 -0.1886036 0.2786597
000150 3f b7 8f 3e 26 97 a1 bd 04 58 bd 3e f0 6b a6 3e
       0.28069493 -0.078901574 0.36981213 0.32504225
000160 64 12 a6 be d7 86 4f be cb 9a 31 bd 22 54 94 be
       -0.32435906 -0.20266281 -0.043360513 -0.28970438
000170 1f f4 90 be df ee 96 bd 33 5d 62 be cc ce 84 3d
       -0.2831125 -0.0736978 -0.22105865 0.06484756
000180 da 6a a8 3d 04 9c 84 be 37 9b 51 be 71 bc 7a 3e
       0.08223505 -0.2590028 -0.20469366 0.24485947
000190 4a 68 92 3e 72 2f 55 be 0a 5e 9d 3d d0 9e 65 be
       0.2859519 -0.2081888 0.07683952 -0.22423863
0001a0 85 ad 3b 3e 1d 99 0c 3e 04 a9 24 3e 47 87 7d 3e
       0.18327911 0.13730283 0.160801 0.24758635
0001b0 3c f5 31 3d 7d d0 db bd 26 2c 18 3e 03 78 d2 3b
       0.043446764 -0.10733125 0.14860591 0.006422998
0001c0 13 c9 7e be 93 d0 b4 bd 67 60 02 be 7b 91 a3 3e
       -0.24881391 -0.08828845 -0.12732087 0.3194693
0001d0 68 bf ee 3d 1e a6 68 be fb d4 d3 3c 2a 19 c4 3e
       0.116576016 -0.22719619 0.025858393 0.3830045
0001e0 5f 17 89 3e 31 a1 a0 be 65 0f 53 bd 9e ac a6 3e
       0.26775643 -0.3137298 -0.051528353 0.3255357
0001f0 f2 5e a4 be 22 17 dc 3d 55 84 91 3e 2b cd ca 3e
       -0.32103688 0.107466 0.28421274 0.39609656
000200 2e d3 5c 3e 22 52 81 3e c0 7e 80 3e 89 e4 97 3d
       0.21564934 0.25257975 0.25096703 0.074166365
000210 06 3a cd be a2 f1 c0 3c df a5 41 3d e4 4b 31 be
       -0.4008333 0.02355272 0.047277328 -0.17314106
000220 d5 dd ef 3d 51 b7 44 3e 00 e7 64 be 27 40 da bd
       0.11712233 0.19210555 -0.22353745 -0.10656767
000230 2e fd 5a bc 63 49 58 bd 71 db 4a be 18 ee c5 bd
       -0.013366027 -0.052804362 -0.19810273 -0.096645534
000240 e0 a3 94 be b9 5c 2f 3d ec 81 44 3e 11 c3 e2 bd
       -0.29031277 0.042813037 0.19190186 -0.11072362
000250 4b 39 92 be 9e c2 44 3e ea 6b 2a 3c c0 43 f9 bd
       -0.28559336 0.19214866 0.010401705 -0.121711254
000260 77 b5 01 3b 43 d7 15 be 8b b1 2c 3d 40 81 2c 3e
       0.0019792 -0.14632897 0.042161506 0.1684618
000270 aa b6 6e 3e 23 a0 46 3e 62 1c f3 3c 4e 2c b5 3e
       0.23311868 0.19397025 0.02967662 0.35385364
000280 e9 38 09 3e fc e8 a3 3d b4 62 e3 3c 17 dd 19 be
       0.13400616 0.080034226 0.027757026 -0.15025745
000290 2c dc e9 bd 1a f3 0c bd 99 b5 f6 3d 75 9b 18 bd
       -0.114189476 -0.034411527 0.12046356 -0.03725763
0002a0 52 5c e5 3d b7 c7 17 3e fd b2 df 3d 79 1f 27 be
       0.11199249 0.14822279 0.10922811 -0.163206
0002b0 44 50 6b bd 39 45 06 3e 07 ea 1a 3d 58 fc be 3d
       -0.057449594 0.13112344 0.037820842 0.093254745
0002c0 c0 d0 4f 3d 14 5e dd 3d a6 33 16 be 94 f2 2f 3e
       0.05073619 0.108089596 -0.1466814 0.1718238
0002d0 30 4e eb 3a 5a b6 42 be bc ec ad bc 44 a8 26 bd
       0.0017952379 -0.19014874 -0.021231048 -0.040687814
0002e0 2a 82 da bc b3 07 85 bd eb ed 73 3d 24 12 8c 3d
       -0.026673395 -0.06495609 0.059553068 0.068393975
0002f0 36 58 69 3d ed cf 0b be 54 c3 11 3e dd 36 20 3e
       0.05696889 -0.13653536 0.14234668 0.15645929
000300 b1 57 2e be 25 92 7c be 5c 63 4c 3b 6e cc ab bd
       -0.17025639 -0.24665125 0.0031187152 -0.08388601
000310 ed 9e 69 bb d7 33 20 be 5e 71 28 bd 2c 74 02 3e
       -0.0035647706 -0.15644775 -0.04112374 0.12739629
000320 e9 73 24 bd 94 63 87 be 40 96 6e 3e 4a ce c3 3c
       -0.040149603 -0.2644316 0.23299503 0.023902077
000330 74 81 34 bc ed 6b e2 bc af b7 8a 3c d2 e0 af 3d
       -0.011017192 -0.027639354 0.01693329 0.08587803
000340 a1 0f 54 3e 61 b6 d2 3e fe 94 eb 3d 34 9a 18 3e
       0.20709087 0.4115477 0.115030274 0.14902574
000350 27 90 4e 3d c6 bd fb bd 9f 47 7a bc 6c 52 5f 3e
       0.050430443 -0.12292056 -0.015275865 0.21808785
000360 46 06 97 bd 7e 86 00 be 93 b4 15 3e bb 62 14 3e
       -0.073742434 -0.12551305 0.14619665 0.14490788
000370 6f 80 57 3e f0 1d 84 3b b4 d5 67 3d 88 ea 0e 3e
       0.21045087 0.004031889 0.056600288 0.13956654
000380 53 3a c5 3c b9 04 e8 3d 94 ba df 3c 5f b9 e8 3c
       0.024075663 0.11329026 0.027310647 0.028408704
000390 23 60 a1 bd 20 1c b3 3c 29 a0 30 be 08 14 05 be
       -0.07879665 0.021863997 -0.17248596 -0.12995923
0003a0 1d 73 a2 bd 55 d8 11 bd fa cd 0f bd 9b 77 90 be
       -0.07932112 -0.0356067 -0.035108544 -0.28216252
0003b0 f2 a3 e1 bb a2 29 9a bd b2 97 1b 3e 14 79 34 be
       -0.006885999 -0.07527472 0.15194586 -0.17624313
0003c0 43 36 50 3e 0d 29 8a bc 76 ba 27 be e6 2c b1 be
       0.20333199 -0.016865278 -0.16379723 -0.34604567
0003d0 6d 35 65 bc 52 26 26 3c 28 7e 8f bd 66 82 03 3d
       -0.0139897885 0.010140972 -0.07006484 0.03210678
0003e0 03 2d 1a be 49 54 c5 3c 99 a5 d0 3e a4 51 a1 be
       -0.15056233 0.024088042 0.4075134 -0.315076
0003f0 81 39 a2 3e ff 10 94 be e9 d1 af 3e e3 3b c2 3d
       0.31684497 -0.28919217 0.34339836 0.09484079

lstm.bias_ih_l0 f4 [200]
000000 a1 d5 90 3d 0f 64 a7 3e 12 e3 35 3e df a2 4e 3e
       0.070719965 0.32693526 0.17762402 0.20179318
000010 53 b7 88 3d ab ec b3 3d e9 4b 41 3e 1a bd 03 3e
       0.06675591 0.08785375 0.18876614 0.12865105
000020 63 61 f6 3d 3e 8d ae 3f 1f 34 8d 3e e5 06 0c 3f
       0.12030294 1.3636854 0.27578828 0.5469802
000030 c4 7c c9 3e 51 b0 b6 3e 79 0e 82 3e 03 ad 1e 3b
       0.39353 0.35681394 0.25401667 0.002421201
000040 4b 5f 07 3e 4d c9 d2 3e a1 98 3f 3e 28 af 0d 3e
       0.13219945 0.41169205 0.18710567 0.13836348
000050 08 71 09 3e a1 7a 79 3e a9 78 0b 3f 1e b4 76 bb
       0.13422024 0.24363185 0.5448099 -0.003764398
000060 b0 5d 39 3e 74 8f 67 3e c6 46 0a 3f 99 66 22 3f
       0.18102145 0.22613317 0.5401424 0.634378
000070 b8 35 d0 3e 20 b6 6d 3e 66 91 a7 3d 45 3e 0f 3f
       0.40665984 0.23214006 0.081820294 0.5595439
000080 7a 52 51 3e c7 6c a8 3e 26 d6 31 3e 8c 15 02 3f
       0.20441619 0.3289549 0.17366847 0.5081413
000090 e5 35 86 bd 0d f7 17 3d 50 58 c4 3e e7 c4 09 3f
       -0.06553248 0.03710084 0.38348627 0.53816074
0000a0 8c f2 26 3f 0f c5 ae 3d 6b 74 c3 ba 76 7d b7 3e
       0.6521385 0.0853368 -0.0014912015 0.35837907
0000b0 16 5a 7e ba 1f 42 fa 3e 62 e3 24 3e bd 1a 5f 3e
       -0.0009702755 0.4887857 0.16102365 0.21787544
0000c0 c2 19 90 3c 32 f1 94 3e ce a4 bc bb 50 42 c9 3d
       0.017590407 0.29090267 -0.005756951 0.09827101
0000d0 3f c2 d7 3c 2b 11 e7 3d 0f f3 d5 3d 5d 47 3b 3e
       0.026337741 0.112825714 0.104467504 0.18288942
0000e0 0b 54 cc 3d 77 30 cd 3d e9 99 07 3e 20 8f c4 b9
       0.099769674 0.100190096 0.13242306 -0.0003749067
0000f0 57 96 fe bd 01 e5 ca be 58 9e 23 3e 4e 98 e8 3d
       -0.12431019 -0.3962784 0.15978372 0.11357175
000100 51 1f aa 3d 9f 3d d9 3d bd b0 c5 bd 63 4d 76 3e
       0.083067544 0.106074564 -0.09652851 0.24052958
000110 3c 37 22 3e ab c6 54 3d 67 e6 f8 bc 27 f5 ba bd
       0.15841383 0.051947277 -0.030383302 -0.0912879
000120 6e 42 48 3e 7f 50 ca 3d 03 49 89 bc 7d c8 bb bd
       0.19556591 0.09878635 -0.016758448 -0.091690995
000130 24 73 4c 3e 1a cf 68 3e 5e c5 16 3e 7e 40 d6 3b
       0.19965798 0.22735253 0.14723727 0.00653845
000140 1e 48 87 3b 87 d9 34 3c 67 fc 09 bd 66 c0 00 be
       0.00412847 0.011038191 -0.033687975 -0.12573394
000150 6a 73 95 bb 94 3b f0 3b be 4b 08 3e 30 f5 86 3d
       -0.0045608776 0.007331321 0.13310143 0.065897346
000160 d7 e3 d4 3d 22 db cb 3d bb be 69 3e 57 94 08 3e
       0.103950195 0.09953906 0.22826664 0.13337837
000170 ee 87 bb bd 31 76 43 3c 17 f6 0b bd 78 f9 b5 bc
       -0.09156786 0.0119300345 -0.034170236 -0.022213683
000180 6f a1 da bd 62 39 d5 3d 0f b4 ae 3d c6 c1 b6 3d
       -0.10675322 0.104113355 0.08530437 0.08923678
000190 8f 1b 79 3e a3 a5 1c bd 0b e9 7c 3d 05 63 39 be
       0.24326919 -0.0382439 0.061745685 -0.18104179
0001a0 f3 1d 09 3e ed 74 bb bc db 64 6c 3d 5b ae 16 3e
       0.13390331 -0.022882903 0.05771337 0.14714949
0001b0 57 d3 94 bd 92 93 1e be 34 43 26 bd bf fd a2 bd
       -0.072668724 -0.15485981 -0.040591434 -0.079585545
0001c0 1f c5 85 be e1 63 d3 3d d0 36 e1 bd d0 6c 19 3d
       -0.26126954 0.10321785 -0.10996783 0.037457287
0001d0 0f 08 e5 3d 33 06 03 be 05 b0 15 bd 03 a5 6a 3e
       0.11183178 -0.12795334 -0.03654482 0.2291451
0001e0 61 0d bf 3b 5f b1 7d be 74 04 6e be da 88 ec 3d
       0.0058304523 -0.24774693 -0.23243886 0.1154954
0001f0 a2 11 fd bd 8b 51 24 3e 80 ff e9 3d b8 1e ce 3e
       -0.12356879 0.16046731 0.11425686 0.40257812
000200 ad 7a 8b 3e 3d de 81 3d 6f a7 18 3e ff d5 54 bd
       0.27242032 0.06341217 0.14907621 -0.051961895
000210 0e c5 2d be ff 5f 4c 3d 0a a1 96 3d 59 f3 bf 3d
       -0.16969702 0.049896237 0.073549345 0.09372587
000220 21 3c be 3d 6a a2 1f 3e f4 bd 1a be e9 f7 db 3c
       0.092888124 0.155893 -0.15111524 0.026851611
000230 12 02 48 be 3b 93 44 bd 9f 25 da bd e8 62 ae bd
       -0.1953204 -0.047991972 -0.10651707 -0.085149586
000240 67 99 1b be 3c 17 b3 3d 46 20 ca 3d c8 72 10 be
       -0.15195237 0.08744666 0.09869437 -0.14106286
000250 57 a6 15 be cf c5 cf 3c 57 49 ba 3d 3f 5b 97 3e
       -0.14614235 0.025362877 0.0909602 0.29561803
000260 90 d1 26 3e 5b 45 0e 3d e3 1b c2 bc f0 6d 8d 3e
       0.16290879 0.03473411 -0.023694938 0.27622938
000270 00 23 75 3e 24 68 9a 3e ee cb 23 3e 86 09 a9 3f
       0.23939133 0.30157578 0.15995762 1.3206031
000280 90 43 98 3e 9e 0f 44 3f 1c 69 bd 3e db f1 1a 3f
       0.29739046 0.7658633 0.36994255 0.6052529
000290 b4 9f f1 3d ba 83 61 3e 46 da d6 3c c9 ab b9 3e
       0.11798039 0.22022906 0.026227128 0.36263874
0002a0 ea 6e 41 3e 64 10 54 3e e3 77 1d 3d 0f c6 a0 3e
       0.18889967 0.20709378 0.03844441 0.31401107
0002b0 18 73 3c 3f 15 e7 64 3d 37 6b 46 3e fa d7 ab b9
       0.7361312 0.05588444 0.19376837 -0.00032776577
0002c0 60 b8 7d 3f 42 94 33 3f cd 60 a9 3e 87 b3 f1 3d
       0.9910946 0.701481 0.33081666 0.1180182
0002d0 fa 00 b0 3d ab 5d a9 3e a7 56 a5 3e ea 0c b4 3d
       0.08593936 0.33079275 0.32292673 0.08791526
0002e0 d9 62 86 3d a3 67 e1 3e ac 01 33 3d 3d 59 16 3e
       0.065618224 0.4402438 0.043702766 0.14682479
0002f0 ae 5e 2c 3e 29 46 f0 3e 7f e2 24 3f d2 9d 81 3d
       0.16832992 0.46928528 0.64408106 0.0632893
000300 f2 17 2b 3e f9 de f4 3e 06 9f 60 3e 56 b0 ff 3e
       0.16708353 0.47826365 0.21935663 0.4993922
000310 c6 b9 a5 3e 93 6d 90 3e 96 da 26 3e 21 4c a1 3e
       0.32368296 0.28208598 0.16294321 0.31503394

lstm.bias_hh_l0 f4 [200]
000000 26 23 51 3d c5 bf 2a 3e 85 7b 51 3e 19 ad 65 3e
       0.05105891 0.16674717 0.20457275 0.22429313
000010 e2 7d ed bc 2f 2f b2 3e ad 7e 82 3e 80 cc 37 3e
       -0.02899069 0.34801623 0.2548727 0.17949104
000020 05 bc f7 3d 1b 97 9a 3f e3 3b 59 3e 51 dc 42 3f
       0.12096409 1.2077364 0.21214251 0.76117426
000030 ca aa 69 3e c2 ff a3 3e 96 ef 7a 3e 85 69 18 3e
       0.22819057 0.32031065 0.24505457 0.14884003
000040 19 8d 78 3e 16 30 e8 3e 00 a1 87 3e d4 a3 81 3e
       0.24272574 0.45349187 0.2649002 0.25320303
000050 6d 14 1e 3e 3b 18 73 3e d4 df fe 3e 7c c9 00 3e
       0.1543748 0.23739712 0.49780142 0.1257686
000060 2e c4 98 bd 61 84 50 3d 9e 6c c4 3e ec f7 18 3f
       -0.07459293 0.050907496 0.38364118 0.597533
000070 24 7b e0 3e 89 38 8f 3d 3a b0 40 3e 6b 42 e1 3e
       0.4384395 0.06993205 0.18817225 0.43995985
000080 ac 7e 46 3e 35 b4 b8 3e 3e 09 01 3d 12 8e 02 3f
       0.19384259 0.36074987 0.031502955 0.5099803
000090 97 5a 54 3e b9 35 1b 3e 5e 23 a9 3e 2e ec e9 3e
       0.20737682 0.15157212 0.33034796 0.45688003
0000a0 2d 47 0c 3f 2a 3f 0c 3e f4 da 9c 3d 96 c1 e1 3e
       0.54796106 0.1369597 0.076589495 0.44093007
0000b0 dc c2 5a 3e f1 85 75 3e 13 ad 59 3e 32 42 e5 3d
       0.21363395 0.23976876 0.21257429 0.111942664
0000c0 ca aa 5a 3e da 89 07 3e ac b8 b3 bd 92 bd af 3d
       0.21354213 0.1323618 -0.08775458 0.085810795
0000d0 4e 9b cf 3d 1a 79 07 bd 73 13 16 3e 51 b2 18 3e
       0.10137044 -0.033074476 0.14655857 0.14911772
0000e0 1c 83 31 3e 70 8e 5f 3d f6 ab 17 3d 94 a9 37 3d
       0.1733517 0.0545792 0.03702923 0.044839457
0000f0 80 0f b1 3d 97 06 04 be f4 b5 05 3d 19 3e 39 3e
       0.086455345 -0.12893139 0.032644227 0.18090095
000100 df 41 39 3d 6d 08 9f bc 16 58 1d 3e 9c aa 81 3e
       0.045228835 -0.019413197 0.15365633 0.25325477
000110 39 41 27 3e fa 33 6f 3d d8 6d 33 3d ab d0 13 3e
       0.16333474 0.058399178 0.043805927 0.1443507
000120 c4 4e 64 3e 74 cf 4b 3e f0 66 aa 3d c8 bd 20 bd
       0.22295672 0.19903356 0.08320415 -0.03924349
000130 e8 60 17 3e 47 01 d0 3d 08 3f 3a bd 56 aa 46 3d
       0.1478306 0.10156494 -0.045470268 0.04850229
000140 5d 73 1f be 97 90 2c 3e b4 97 da 3d f5 2a a2 be
       -0.15571351 0.16852032 0.10673466 -0.316734
000150 dd ce 4e 3d 6d b6 1e be 79 48 b3 3d 88 88 5d 3e
       0.05049025 -0.15499277 0.087540574 0.21634114
000160 71 d9 8f 3d 99 76 b8 bc 59 d0 02 3e 8d dd c3 3d
       0.070238955 -0.02251749 0.12774791 0.09563742
000170 5e a0 6b bd ce e4 e7 bd eb 7c 7f bd 06 49 2e 3e
       -0.057525985 -0.11322938 -0.06237499 0.17020044
000180 df 0e e3 3d fa 10 04 bd 66 22 07 3e 54 ad 2a 3e
       0.11086821 -0.032242753 0.13196716 0.16667682
000190 b0 2d 6e 3e ad 62 89 3d 2b 12 3a 3b c2 c5 35 be
       0.23259616 0.06708274 0.0028392177 -0.1775122
0001a0 12 b7 d7 3d 94 46 fc 3d bb dc e3 3d 0e f4 e5 bd
       0.10532965 0.12318149 0.11126085 -0.1122819
0001b0 47 86 ec 3d e5 67 dd bd c8 0c 4b 3d c3 0d dc bd
       0.11549049 -0.10810832 0.049572736 -0.10744812
0001c0 31 42 97 be 07 b8 d8 bc 84 5e 86 bd 84 1c c5 3d
       -0.29542688 -0.026454939 -0.06560996 0.096245795
0001d0 0b 0a 59 3e 9a 6d 7e be 92 c8 e3 bb 77 c6 ff 3d
       0.21195237 -0.24846497 -0.0069514 0.12489026
0001e0 8d cc 13 3e 9a aa 10 be 50 6b 7a bc 82 23 2b 3e
       0.14433499 -0.1412758 -0.015284374 0.16712764
0001f0 7b fc 99 bd a5 71 22 3e 1f 9f a6 3e d9 27 d7 3e
       -0.0751886 0.15863664 0.32543275 0.4202259
000200 1a 81 c7 3e 8c f2 39 3e 7b 28 1f 3e e7 b5 21 3e
       0.38965684 0.1815893 0.15542786 0.15792046
000210 fe 97 34 be 85 02 2f 3e 0e 32 01 3e 22 78 28 3d
       -0.17636105 0.17090805 0.1261675 0.041130193
000220 43 c6 fc 3d 10 63 02 3e 11 58 cd bd 2f bc 0c 3b
       0.12342503 0.12733102 -0.10026563 0.002147447
000230 2d fd 1e 3d 5e 81 a1 bd 03 f2 27 be d7 a5 82 3d
       0.038815666 -0.07886003 -0.16400914 0.06379288
000240 64 b4 b5 bd c7 f2 91 3e a0 d3 36 bb de ae 4b be
       -0.088722974 0.28505537 -0.0027897134 -0.19890925
000250 cc 51 32 be ab 53 1c 3c 5c 65 ee 3d 30 1f 89 3e
       -0.17414016 0.009541432 0.116404265 0.26781607
000260 ca 2a 3d 3d f3 24 53 bd 52 fd 25 3c f9 27 63 3e
       0.046183385 -0.05154891 0.010131197 0.22183217
000270 52 ad 8d 3e f9 35 0f 3e 37 3a 1c 3e 03 04 9b 3f
       0.27671295 0.13985433 0.15256582 1.2110599
000280 3a 13 a2 3e 34 f5 25 3f 95 3c e5 3e 1e 6a cb 3e
       0.31655294 0.64827275 0.44772783 0.39729398
000290 53 03 29 3e f5 a7 0a 3e 13 4f 17 3e 1a cf a6 3e
       0.16505174 0.13540633 0.14776258 0.3257988
0002a0 0a b2 bd 3e 8b 9b 04 3e fd c0 12 3d a2 f4 78 3e
       0.37049896 0.1294996 0.03582858 0.2431207
0002b0 b7 53 1d 3f ce d0 71 3e cf 0a 1c 3e d5 fd 2f 3d
       0.61455864 0.23614809 0.15238498 0.042966682
0002c0 4f 43 43 3f 3a f2 68 3f bb 28 81 3e f4 4f 04 ba
       0.7627458 0.9099461 0.25226387 -0.00050473143
0002d0 48 65 84 3d 2b da 17 3f 44 8e 91 3e 94 7a 9d 3e
       0.0646463 0.5931727 0.28428853 0.30757582
0002e0 13 96 1a 3d ea af c1 3e c4 4d df bc 0f e0 28 3e
       0.03774078 0.37829524 -0.027258761 0.16491722
0002f0 43 97 ab 3e 3e 57 1c 3f e6 a6 23 3f 5f dd bf 3d
       0.3351384 0.6107062 0.6392654 0.09368395
000300 36 69 62 3c 1e ae f6 3e f9 6b 33 bc e7 ff bf 3e
       0.01381903 0.48179716 -0.010951036 0.37499925
000310 02 d2 58 3e 56 09 22 3e c1 20 47 3e 24 6e 17 3e
       0.21173862 0.15823874 0.19446088 0.14788109

lstm.weight_ih_l1 f4 [200, 50]
000000 80 84 b2 3d 65 c9 85 3d 95 d2 13 3e 13 46 5e bd
       0.087166786 0.065325536 0.144358 -0.054266047
000010 fc d6 34 3e c5 76 47 3e f9 24 8c 3d 3d 8d 8a bc
       0.17660135 0.194789 0.068429895 -0.01691305
000020 76 4a 35 3e e4 04 97 be 5e f4 44 3d b1 d5 a6 be
       0.17704186 -0.2949592 0.04808461 -0.3258491
000030 12 80 98 be 1c 02 78 bd ce 04 32 be fb 07 14 3d
       -0.2978521 -0.060548887 -0.17384645 0.036140423
000040 71 74 d4 3a 13 cc 35 bc c6 9e a3 be cd 83 85 3e
       0.0016209019 -0.011096018 -0.31957072 0.2607712
000050 82 53 39 3e 50 07 23 be 2c 27 2e bd 79 d1 e7 bc
       0.18098262 -0.15920758 -0.042517826 -0.028298127
000060 4f 44 01 be 8e 11 23 bd 54 72 0b 3f a7 41 94 3e
       -0.12623714 -0.039811663 0.54471326 0.2895634
000070 61 12 a5 3e 07 20 85 3d 52 3c 2b 3d 89 7d 20 be
       0.32240584 0.06500249 0.041805573 -0.15672888
000080 e9 29 14 be ce 21 96 3e cc 95 03 bc 0e 24 81 3e
       -0.14469112 0.29322666 -0.00803132 0.2522282
000090 70 ec 0c 3e 93 c6 1b 3e 52 6c ba be 84 eb 37 3e
       0.13762069 0.15212469 -0.36410767 0.17960936
0000a0 42 a2 f7 3d a9 59 8c be e4 35 a8 bd 5f 2c 88 3e
       0.12091495 -0.27412155 -0.08213404 0.26596352
0000b0 f7 09 73 3d 81 65 db 3e a4 f1 b8 3e 19 ab 7a bd
       0.059335675 0.4285088 0.36121857 -0.061198328
0000c0 5a 0f 72 bd 5b 55 47 3d c3 6f a0 3e 41 ac 08 be
       -0.05909667 0.048665386 0.31335267 -0.1334696
0000d0 0b b4 88 3e 14 c1 78 be e2 af 89 3e f9 36 80 3e
       0.26699862 -0.24292403 0.26892 0.2504194
0000e0 00 59 e6 3d 9c a1 68 3e 38 c5 e9 3d 60 b9 4c 3e
       0.11247444 0.22717899 0.114145696 0.1999259
0000f0 5f b5 e4 3d 97 73 9b 3e 06 c4 82 be a1 4d b5 be
       0.11167406 0.30361626 -0.2554018 -0.3541079
000100 ff 1e 8d be 7e 86 27 3e 25 e1 59 3e 26 34 a3 be
       -0.2756271 0.16359898 0.21277292 -0.31875724
000110 6c fd ae 3e a8 ef 4c 3e 6a 1f 88 3e bd 42 35 be
       0.3417772 0.20013297 0.26586467 -0.1770124
000120 98 20 61 3e 0b a9 2b 3e 2e 95 84 be 73 24 72 3e
       0.2198509 0.16763704 -0.25895065 0.23646717
000130 3a 50 95 3e e6 5e 00 3f 73 f8 36 bb fc 7b 83 3e
       0.2916277 0.50144804 -0.0027919083 0.2568053
000140 ca 43 7f 3e b4 ea 93 be 95 13 07 be 5a 3b be 3e
       0.24928203 -0.28890002 -0.13191064 0.37154657
000150 a0 1c 73 3e 78 7f 62 be bd f7 18 3e 69 ee 4c 3e
       0.23741388 -0.22118938 0.14938255 0.20012821
000160 e4 c1 99 be bc 8e d6 be 18 2f ae 3d d3 ea 25 3d
       -0.3003074 -0.41905773 0.08505076 0.04050715
000170 94 16 8c bd 4d 7b 3e be 88 6f 82 be 74 0e 91 3d
       -0.06840244 -0.18601723 -0.25475717 0.07082835
000180 01 77 7a 3d fe f4 ae be d8 d4 33 be 32 1c ed 3d
       0.061148647 -0.3417129 -0.17561662 0.115776435
000190 77 2b 0a 3e ae 4a 64 bc 4a 4f da 3d 93 4d 46 bd
       0.13493143 -0.013933821 0.106596544 -0.048413824
0001a0 01 45 2b 3e b2 6b 3e 3e 02 80 35 3e 8b 11 8b bd
       0.16725542 0.1859577 0.17724612 -0.067904554
0001b0 5f 9f 61 3e 6d 22 52 3e 61 34 0f 3e f2 b4 e3 bb
       0.22033451 0.20520945 0.13984825 -0.0069490606
0001c0 42 88 91 3c d9 8b 51 be 18 08 c8 bd c1 2a 5a bd
       0.017765168 -0.20463504 -0.09767169 -0.05326343
0001d0 1d 34 ab bb f7 4f 26 3e 57 d3 a2 3d ba b6 9f bd
       -0.0052247182 0.16241442 0.07950466 -0.07798524
0001e0 36 ce 31 3e 57 0c 6e be 54 03 cc 3c 88 53 4c 3e
       0.1736382 -0.23246895 0.02490393 0.1995374
0001f0 4c be ec bd d5 e4 21 3e 3e 35 a2 3e 49 b8 eb 3d
       -0.11559734 0.15809949 0.31681246 0.11509759
000200 e8 a4 32 be 11 69 15 3d cb 51 14 3e 09 10 db bd
       -0.17445719 0.036477152 0.14484327 -0.10696418
000210 3c c2 d0 3d f1 54 78 3d 32 c0 db 3d b9 b6 e0 3b
       0.10193297 0.06062788 0.10730018 0.0068577197
000220 fe 4c 71 bd 81 c5 9f 3d 80 99 e1 bd d7 f1 0a be
       -0.058911316 0.07801343 -0.11015606 -0.13568817
000230 7a 72 38 3e bd 0e 04 be 45 dd eb 3c 53 8d d3 be
       0.1801242 -0.12896247 0.028792033 -0.4131876
000240 f4 58 21 be b5 1e 94 be 03 f1 b9 bd 27 19 59 be
       -0.15756589 -0.28929678 -0.090791725 -0.21201001
000250 6a 7e 11 3c 85 ca 2a bd 80 05 b8 bd bc ef 6f 3d
       0.008880237 -0.041697044 -0.08985424 0.058578238
000260 99 c0 3e 3c c7 a8 d4 bd 65 13 ec bd 83 7e 51 3d
       0.011642599 -0.10383754 -0.11527137 0.05114604
000270 d2 54 66 bd 4f 7d 8f 3d ce 43 1d 3e be ec 77 be
       -0.056233235 0.070063226 0.15357897 -0.24211404
000280 d3 dd a9 3c b1 f0 60 3c be fb 9f bd e5 ee a5 bd
       0.020735657 0.01372926 -0.07811688 -0.08102206
000290 1f 4b 2d 3d 93 ae 99 3b 03 7b ec 3d a1 20 80 3d
       0.04230797 0.0046900003 0.115469 0.062562235
0002a0 54 fd 9e 3d a9 b8 34 bd d3 ae 9f 3d e7 90 20 bd
       0.07763162 -0.04412142 0.07797017 -0.03920069
0002b0 40 a7 28 bd be b2 d9 3c 03 8b 12 be eb 13 8a 3d
       -0.041175127 0.026574489 -0.14310841 0.0674208
0002c0 84 1d 1e 3e 9a 93 f7 bc 4a 9c 1a bd 8c 5e f8 3a
       0.15440947 -0.03022175 -0.037746705 0.0018949076
0002d0 f8 b1 c5 bd b9 3e 5a bc 1f 9f f5 bd d5 94 33 3e
       -0.096530855 -0.013320618 -0.119932406 0.17537244
0002e0 bf 87 cc 3d f7 5a 0b be cc 64 0a 3e d1 bd 4f bc
       0.09986829 -0.13608919 0.13515013 -0.012679533
0002f0 e2 99 27 be 82 f6 f8 3d 4e dd 08 3e 2c 51 1a 3e
       -0.16367295 0.12156393 0.13365671 0.15070027
000300 d4 79 46 3d 0e 7e 37 be db 24 28 3d 73 fb 0c be
       0.048456028 -0.1791918 0.041050773 -0.13767795
000310 97 e4 9e 3d 73 8f 82 3d 6c 68 79 bd f0 43 17 3d
       0.07758444 0.06375017 -0.0608906 0.036930025
000320 42 8b b8 3e 3d 42 a3 bf ef 64 83 3f 6c ce 28 bf
       0.36043745 -1.2754589 1.0265177 -0.65939975
000330 89 fe 41 3f a8 bb 17 40 f9 6c bd 3f 6c e1 62 3f
       0.75779015 2.3708286 1.4798881 0.88625216
000340 de 7c b0 3f c2 cb ac 3f 47 22 5c 3f 75 d0 28 3f
       1.3788106 1.3499682 0.85989803 0.6594308
000350 4f 6a 8f be 02 36 b2 bf 73 43 79 bf 43 6a 83 3f
       -0.28010795 -1.3922732 -0.97368544 1.0266804
000360 82 83 0a 3f 3c 23 63 bf ed 7b 8e 3f a5 80 c1 3f
       0.54106915 -0.8872564 1.1131569 1.5117384
000370 d6 5c 98 3f 73 eb 00 3d bf 6e cf 3f 6f cc 5a 3f
       1.1903331 0.031474542 1.6205672 0.8546819
000380 6f 6b e5 be f2 e5 2e 3f 2a d6 93 3e b6 f7 e5 3c
       -0.44808528 0.6831962 0.28874332 0.02807222
000390 af f8 bc 3d ef ac 4a 3f 2e 87 4e 3e 33 a7 ae bf
       0.0922712 0.79170126 0.20168754 -1.3644775
0003a0 73 0f 1d 3f a4 ca 05 3e ef c6 57 3f e6 16 0b bf
       0.613517 0.13065583 0.84287924 -0.54331815
0003b0 2b 44 67 3f 5e ab 80 3f 63 1e 2a bf fb d6 bb bf
       0.9033839 1.0052297 -0.66452616 -1.4674982
0003c0 dc 7f ba 3f 01 b3 be be 47 68 1c bf 97 87 d2 be
       1.457027 -0.37245944 -0.61096615 -0.41119072
0003d0 e7 00 58 bf 70 67 6d bd 9e 0c 08 3f b1 60 4d bf
       -0.84376377 -0.057959974 0.5314425 -0.80225664
0003e0 00 55 31 bf bb 6b d7 3f 63 7d 92 3d 36 6c 04 be
       -0.69270325 1.6829752 0.07152822 -0.12931904
0003f0 c3 e0 60 3c ed 90 03 bd 98 1f 82 bd ca 5c 85 3d
       0.013725462 -0.032120634 -0.06353682 0.06511839

lstm.weight_hh_l1 f4 [200, 50]
000000 71 65 f1 3d 52 53 b7 3e 04 63 17 3c 98 4c 3c be
       0.117869265 0.35805756 0.009239916 -0.18388593
000010 f5 e5 61 3f 5b 2b c1 bd 83 90 44 be 1a 8d b1 3e
       0.8824151 -0.094320975 -0.19195752 0.34677964
000020 7f db 91 bd 67 3f 4c be e4 1e 12 3e 08 31 08 be
       -0.07121944 -0.19946061 0.14269596 -0.13299954
000030 b8 e4 4b 3d db 7c a5 3e 05 ee bc bd d9 79 05 3e
       0.04977867 0.3232182 -0.09225086 0.13034762
000040 e8 db 17 be 5c 4e b1 bc 98 53 1c bd ff 17 ee 39
       -0.14829981 -0.02164381 -0.03816566 0.00045412776
000050 40 0f a0 3e b9 ce ec 3c 86 fd 8d bd c2 08 11 3e
       0.31261635 0.028907167 -0.069331214 0.14163497
000060 1d 94 86 be da 83 2c 3e 55 60 f7 3d b3 8f 82 3b
       -0.26284876 0.16847172 0.12078921 0.0039844154
000070 fa 66 f6 3d eb 05 ac bd 1c e1 22 3e db 16 c5 bd
       0.1203136 -0.08399566 0.15906185 -0.096235
000080 29 b5 30 3d 93 a7 16 be 9a 12 fb bd 65 c6 f0 bc
       0.043141518 -0.14712362 -0.12259407 -0.029391477
000090 97 7c bb 3d fb b3 da bd 3e c7 64 bd 14 a4 89 bd
       0.09154623 -0.1067886 -0.055854075 -0.067207485
0000a0 f7 95 6f ba ea 6d 29 3d d1 1b 7c 3d 92 5d 03 3f
       -0.0009139473 0.041364588 0.061549965 0.5131465
0000b0 c8 ca 4e 3d 59 e6 0a 3e 18 df be bc e9 20 bf 3d
       0.050486356 0.13564433 -0.023299739 0.09332449
0000c0 b8 55 c1 3d 4c 5c d4 be 9e 1c 02 be e9 9a d2 bb
       0.09440178 -0.41476667 -0.12706229 -0.006427158
0000d0 8c 64 10 3e c1 99 c7 bc 4b c8 b5 be 81 d3 65 bc
       0.14100856 -0.024365308 -0.35504374 -0.014027477
0000e0 c8 0b 23 3e 71 17 1f bd 11 9e 0b 3e e4 22 0d 3c
       0.15922463 -0.038840715 0.13634516 0.008614276
0000f0 85 2e 3d 3e ef 36 f3 bc 9f d0 14 3c a7 53 e6 bd
       0.18474777 -0.02968928 0.009082942 -0.11246424
000100 24 cb 5f ba 13 04 c3 3d f7 01 91 3e e3 97 3d bd
       -0.0008537045 0.095222615 0.28321812 -0.04628743
000110 de 1f b1 bd 65 2e 79 3e cd d8 23 3e 68 ee a0 bd
       -0.08648656 0.24334104 0.16000672 -0.078579724
000120 5b 4b 99 bd 7b 45 f9 3c 77 0d 33 3b c2 58 74 3d
       -0.07485076 0.030428639 0.0027321258 0.05965496
000130 4b 24 77 bc b1 5a c4 bd 31 77 b3 3d 8e f5 1d be
       -0.0150843365 -0.095876105 0.08762968 -0.15425703
000140 ea de c2 bc aa 18 d8 bd 8b ff 33 be ce a1 7a be
       -0.023787934 -0.10551579 -0.1757795 -0.24475786
000150 7b 9c 85 be 0c c6 6a be b0 4d a8 be e9 5e 88 3c
       -0.26095948 -0.22927111 -0.3287177 0.01664682
000160 dc 60 12 3e 46 0a 82 bd 3b c3 49 3e 5a 10 9c 3e
       0.14294761 -0.06349616 0.19703381 0.30481225
000170 6c fb e6 3d c4 cd a2 bd 7c 08 45 bd 54 38 84 bd
       0.11278424 -0.07949403 -0.048103794 -0.06456056
000180 72 a3 c1 3d 2c 91 2a be fb c2 50 bd 13 23 5f 3e
       0.09455003 -0.16656941 -0.050967198 0.21790724
000190 4a 8d ae 3c 23 2e 80 3c db 7f 91 3d ca ab 19 3d
       0.021307606 0.015647 0.071044646 0.037517346
0001a0 73 24 62 be bc 9c cb 3d 78 77 e1 bd b6 c4 aa 3c
       -0.22084217 0.09942004 -0.11009115 0.020845752
0001b0 e1 0f 10 be 32 6c e3 3d 65 41 98 3d 47 a0 3b be
       -0.14068557 0.11104621 0.07434348 -0.1832286
0001c0 89 2f 4d bc 76 36 08 3d 7a 2c eb 3c 7f 49 71 3e
       -0.01252354 0.033255063 0.028707732 0.23563193
0001d0 a5 7b 2d 3d cf 13 f7 3d 7e c9 5a bd dd b1 8c 3c
       0.042354245 0.12064325 -0.053414814 0.017174656
0001e0 a1 f8 98 3d bd 89 8a ba 9c e1 da 3d 50 70 b8 3d
       0.07469297 -0.0010569614 0.10687563 0.09005797
0001f0 88 5d 51 be ea 5b 26 3e 74 48 44 3e 06 8b 14 be
       -0.20445836 0.16246 0.19168264 -0.14506158
000200 7a ae d9 bd f1 dc 42 be cc 7d 18 3e 08 a7 3f bd
       -0.10628982 -0.19029595 0.14891738 -0.046790153
000210 01 2f df bd ef 56 6c 3d 98 7c 20 be 35 05 b8 bd
       -0.10897637 0.057700094 -0.15672529 -0.08985368
000220 ef 93 e6 3c 96 1f 4b be 22 1c 12 3c 7b 83 d1 3c
       0.028146712 -0.19836268 0.00891784 0.02557539
000230 eb 96 94 bd 98 1c cd bd 0c 8d e1 3d d1 c6 7a 3d
       -0.07255348 -0.100152194 0.11013231 0.061224762
000240 31 00 33 bd 51 8a e9 3c 02 78 9a 3d e2 e0 55 3d
       -0.043701354 0.028508337 0.07542421 0.052216418
000250 7b 08 6f 3d 86 c6 19 be 44 25 f0 3c df 0a b6 bd
       0.058357697 -0.15017137 0.029314645 -0.08888792
000260 83 49 d5 bd 18 86 09 be a9 ff da bc cb 9a 71 bd
       -0.10414412 -0.13430059 -0.026733236 -0.058985513
000270 16 fd 94 bd 69 cc 2c bd e5 e8 0b 3e 74 9e 1c be
       -0.07274835 -0.04218713 0.13663061 -0.1529482
000280 ec 61 44 3d fd 13 11 bd c9 11 cd bd 6d 4e 99 3d
       0.047944948 -0.035419453 -0.10013158 0.07485662
000290 81 1f 02 3e 93 29 4c 3d fa 47 a9 3b cc e7 d7 3c
       0.1270733 0.049844336 0.005166051 0.026355647
0002a0 0b 8e 90 3d c7 0f 25 3d b4 0c d5 bd 52 47 ce bd
       0.070583425 0.04029825 -0.104028136 -0.10072197
0002b0 3a 18 48 be 34 28 54 3c c3 78 91 bd b7 8f 6a bc
       -0.19540492 0.012949038 -0.071031116 -0.014316491
0002c0 d4 24 a0 3d 27 4c 74 bd c8 68 0f bd 09 c0 e4 3d
       0.078195244 -0.059642937 -0.035012037 0.1116944
0002d0 30 34 0c 3e 2a 32 09 3d 25 b0 fc 3d fe b1 38 3d
       0.13691783 0.033495106 0.123382844 0.04509162
0002e0 cf 9c f2 bc 83 8e eb bd 2e 97 12 bd 10 86 1a 3d
       -0.029615788 -0.11501791 -0.035788707 0.03772551
0002f0 88 90 92 3d 19 51 c6 3c 34 0b a2 3d 3e a4 af 3d
       0.071564734 0.024208592 0.07912293 0.085762486
000300 4a fa d9 3d fc d4 41 bb ac ea 89 3d 59 28 86 bd
       0.10643442 -0.0029576411 0.06734213 -0.065506645
000310 52 81 71 bd 8b 5d 9c bd 47 12 aa bd 0d 20 2c be
       -0.05896122 -0.076350294 -0.083042674 -0.16809101
000320 36 e4 92 3f 0d b0 bb 3f 59 f1 2a 3f 2f 95 4f bf
       1.1475894 1.4663101 0.6677452 -0.8108701
000330 05 d0 45 3e 46 31 22 3f 5f e4 a7 bf 93 b1 bc 3f
       0.19317634 0.63356435 -1.3116568 1.4741691
000340 a9 8a 9f bf ba 9e 81 bf 4a a7 a3 3f 68 4f 8a bf
       -1.2464191 -1.0126565 1.2785428 -1.0805483
000350 a2 97 6f bf 44 ad f8 3d d1 ee af bf e1 31 a6 3f
       -0.9359075 0.12142423 -1.3744756 1.2983972
000360 dd 95 33 bf a6 0e 98 bf 24 32 bc be 07 2c ef 3d
       -0.7015055 -1.187947 -0.36757004 0.116783194
000370 5d aa ab 3f b9 78 90 3f f2 c6 07 bf 84 d1 14 3f
       1.3411366 1.1286842 -0.5303794 0.58132195
000380 ba 27 93 bf 96 d8 87 3f 34 fd a8 3f 92 c3 58 bf
       -1.1496499 1.0612972 1.3202271 -0.84673417
000390 29 90 4b 3f 0a 75 52 bf ed 57 60 3f 5c ac 14 3f
       0.79516846 -0.8220984 0.87634164 0.580755
0003a0 3a 22 73 bf a7 47 24 bf f0 66 6e 3f 03 77 40 bf
       -0.949741 -0.6417183 0.9312582 -0.751816
0003b0 44 c0 29 3f bf a4 dc bf f3 9c 91 bf 4a a8 19 c0
       0.66309 -1.7237777 -1.1376022 -2.4008965
0003c0 47 30 69 3f ed 22 93 bf 21 18 73 3e 6a 43 c4 3f
       0.9108929 -1.1495034 0.23739673 1.5333073
0003d0 fe 48 0d bf 36 5b 91 3f fc d2 43 3f 0f 5c 43 3f
       -0.551895 1.135596 0.7649381 0.76312345
0003e0 57 85 96 3f b9 f4 6f bf a7 c4 dd 3d e5 c1 a9 3e
       1.1759442 -0.9373279 0.10828524 0.33155742
0003f0 95 26 5f bd a8 55 00 3e 60 4d 14 3f b1 2d 44 bd
       -0.054480154 0.12532675 0.57930565 -0.047895137

lstm.bias_ih_l1 f4 [200]
000000 8f bc d8 3d 2b f0 3a 3d 50 9e 6b bd 61 48 55 3c
       0.1058284 0.0456392 -0.057524025 0.013017745
000010 ee 3b a4 3d 02 c3 f6 3c 28 03 1f bc 60 0b 09 3e
       0.08019243 0.030122284 -0.009705342 0.13383245
000020 f1 e3 ec bd 1a 7c 31 bd 09 5f e4 bd 33 c1 9f 3d
       -0.11566914 -0.043331243 -0.11150939 0.07800522
000030 24 e5 b8 3d c7 27 47 3e 2b 29 33 bc 3e 0e 12 3e
       0.0902808 0.19448768 -0.010935108 0.14263245
000040 55 04 a0 3d bf 24 08 3e 3c 23 04 be 70 18 10 3d
       0.07813326 0.13295268 -0.12904066 0.035179555
000050 90 a4 1a 3e a2 f3 37 3d 5c b5 0f 3e 2e 00 19 bd
       0.15101838 0.04491008 0.14034027 -0.037353687
000060 17 8c de bc 91 f1 52 bd ba bc 2c 3e d8 12 ac 3d
       -0.02716641 -0.051499907 0.16868868 0.08402032
000070 32 e4 ee 3d eb be 93 3c 54 f3 c3 bd b4 6d 0b 3e
       0.116646186 0.018035373 -0.095678955 0.13616067
000080 a9 ff 89 bd 8a 7b 84 bd 11 e0 34 bd ed d5 df 3d
       -0.067382164 -0.06468876 -0.044159 0.10929475
000090 fe c7 d5 3d c7 a9 f2 3d 16 2f 22 3c 44 c0 1f 3e
       0.10438536 0.11848789 0.0098989215 0.15600687
0000a0 75 8a 0e 3e f8 12 52 3e a4 57 57 3c 56 c6 47 3e
       0.13920005 0.20515049 0.013143454 0.19509253
0000b0 82 b1 a7 bd 4a 44 19 3d 62 a1 80 3d 35 e8 b5 bd
       -0.08188154 0.03741864 0.06280781 -0.088821806
0000c0 15 1f 89 bc 63 d7 ee 3e 8c d7 cf 3d 53 3b 7a bb
       -0.016738454 0.46648702 0.10148534 -0.0038182333
0000d0 70 84 71 bc e4 45 21 bd 68 2e 3c be c4 b5 00 3e
       -0.014741048 -0.039373294 -0.18377078 0.12569338
0000e0 f3 c6 35 3e e3 9d 1f be b5 c3 1b bd ab f0 b3 bd
       0.17751674 -0.15587573 -0.038028438 -0.08786138
0000f0 a9 c4 1a 3d f3 a9 e1 3d dc 08 57 bc 3d 84 64 3d
       0.037785206 0.11018743 -0.013124671 0.055790175
000100 1d cf 48 bd 7a d6 82 bd 63 12 1d be a2 6c f7 bd
       -0.049025644 -0.063885644 -0.15339045 -0.12081267
000110 c2 2d 12 bd 54 ad e9 bd 6b 8a f2 3c d6 82 c1 3c
       -0.03568817 -0.11410013 0.029607018 0.023621958
000120 f0 4b 14 3e 85 6d aa 3d cf 63 76 3d 96 c0 ee bd
       0.14482093 0.083216704 0.06015378 -0.116578266
000130 70 1e 7e bd e6 c5 bc bd 38 5a 87 3b f7 0e a5 bd
       -0.062040746 -0.09217434 0.004130628 -0.08059495
000140 e2 b4 fa 3c a5 d6 22 3d bc f7 36 3d b7 c8 bd 3d
       0.03060383 0.039755482 0.04466985 0.09266799
000150 0d f8 ae 3d 7c e2 ef bd 4c cc 91 3d 4d 1a f7 bd
       0.08543406 -0.1171312 0.07119045 -0.12065563
000160 39 fa 11 3d 75 07 17 3e bf 2a 41 bd 2c 8b 0a be
       0.03563902 0.14748938 -0.047159906 -0.13529652
000170 f1 5c 39 3d 91 fb 02 3e ab 2e ba bd f3 a7 22 3d
       0.04525465 0.12791277 -0.090909325 0.03971095
000180 d0 bf 4e 3d 83 eb ed bd 52 3a 26 3d 35 81 f3 3d
       0.050475895 -0.11617186 0.040582962 0.11889879
000190 6a e1 8a bd d3 36 c6 3c a1 22 0b 3d d2 8c b8 bd
       -0.067812756 0.024196064 0.03396857 -0.09011234
0001a0 62 3e b1 be f3 68 7f bd 99 85 cc bd 53 db b1 3d
       -0.34617907 -0.062355947 -0.09986419 0.08684411
0001b0 a4 d5 50 bd cf 07 d8 bd 76 ee e6 bc 07 61 11 be
       -0.050984994 -0.10548364 -0.028189879 -0.14197169
0001c0 30 c6 03 3c 65 93 14 bd 07 6c b5 bd 43 01 e1 3c
       0.008042857 -0.03627338 -0.08858495 0.027466422
0001d0 8e 9f 1b 3e 26 07 60 3d c9 93 d5 bc 20 29 a8 3b
       0.15197584 0.054694317 -0.026071446 0.0051318556
0001e0 a4 ab 02 3e 51 dc c5 bc 8b ca cf bc 8f 6a 0f 3c
       0.12760788 -0.024152907 -0.025365135 0.008753433
0001f0 9d 24 9f 3d 69 a9 45 bd 9c df 02 3e 6c a1 d0 3d
       0.07770655 -0.048257265 0.12780613 0.10187039
000200 b6 f6 19 3d b1 87 f0 bd 61 7b a7 bd 2e ed de bd
       0.037588798 -0.11744631 -0.081778295 -0.10885082
000210 60 cc e0 bd 3e 1e e4 bd e2 a2 38 3c 8d 53 71 3d
       -0.109764814 -0.11138581 0.011269303 0.05891757
000220 bd 1e ec bd 6e 03 23 bd 33 13 06 bd 56 09 eb 3d
       -0.115293 -0.039798193 -0.032733154 0.1147639
000230 24 c2 c7 3d 26 2b ff 3d fc 2e 0f 3e 42 ae af 3d
       0.09753826 0.12459402 0.13982767 0.08578159
000240 9a f2 c0 3d 25 db 39 bd 2e bf e7 3a 18 16 10 be
       0.094212726 -0.045375008 0.0017680877 -0.14070928
000250 a8 98 c2 3d c3 85 11 3e 97 20 22 bc 1e 5b aa 3d
       0.09501773 0.14211182 -0.009895465 0.083181605
000260 0b 62 88 bd fb ca 69 3d 78 ff 67 bd fc e3 ff 3c
       -0.06659325 0.057078343 -0.05664012 0.031236641
000270 eb 22 34 3e 91 e9 db 3d bc d9 55 3d 2d 85 35 3d
       0.17591445 0.10737909 0.0522096 0.04431646
000280 09 7c 9e bc 69 9c 96 3d 6d 36 93 bd df 96 12 3d
       -0.019346254 0.073540516 -0.07188115 0.035788413
000290 1e 51 3b bd c2 2a 6f bd ac 33 3b bd 83 96 15 3e
       -0.045731656 -0.058390386 -0.045703575 0.14608197
0002a0 e0 58 ac 3d 7a 58 19 3e e3 ac 67 3d 28 7f 0c be
       0.08415389 0.14975157 0.056561362 -0.13720381
0002b0 cb 82 09 3d 63 08 b5 bd cc ed f4 3d 72 cb e3 bd
       0.033572 -0.0883949 0.11959419 -0.111227885
0002c0 d8 32 c3 3c 6e 0b 23 3e d1 d3 83 3d 35 ee d5 3d
       0.023827955 0.15922329 0.06436885 0.10445825
0002d0 82 2a e1 ba 7a 30 c0 3a 44 d9 bc 3d 36 55 18 3e
       -0.0017178806 0.0014662885 0.09221128 0.14876255
0002e0 7d b4 90 bd e5 ce b1 3d 77 95 9d bd 89 72 d5 bd
       -0.070656754 0.0868204 -0.07694524 -0.104222365
0002f0 64 d2 00 3e 33 1f 6b 3c b4 ba 99 bd 68 0f 36 3e
       0.12580258 0.0143507 -0.07506314 0.17779315
000300 cb 6a b8 bc 80 5c 2e 3e 53 8e e1 3c fd 9f b9 3d
       -0.02251186 0.17027473 0.027533686 0.090637185
000310 87 ea b1 3d 2c 38 ce bd ba e6 de 3d a1 56 ba 3e
       0.08687311 -0.10069308 0.10883851 0.36394218

lstm.bias_hh_l1 f4 [200]
000000 b1 1d b0 3c 53 25 06 3e 9b b9 6d 3c d9 82 0a 3e
       0.021498533 0.13100176 0.014509584 0.13526477
000010 3a 2b 1f 3d 82 89 85 bd 84 28 a4 3d 21 53 1c 3e
       0.038859583 -0.06520368 0.0801554 0.15266086
000020 f9 0d ae bd 81 ae 20 3c b6 f8 36 bb 75 20 55 bb
       -0.08498759 0.00980723 -0.002791924 -0.0032520567
000030 54 4f d5 3d b8 ce 62 bd 3a 63 3b 3d 6c 17 0c 3e
       0.10415521 -0.055372924 0.045748927 0.1368081
000040 e1 d6 bb 3d b0 20 95 bd 96 4c 26 bc ff 8f f8 3d
       0.09171844 -0.07281625 -0.010150095 0.1213684
000050 9b 84 d9 bc f5 c6 c8 3d 6f 6b 90 3e 1d cd 38 bd
       -0.026552489 0.09803573 0.28206965 -0.045117486
000060 bc 41 12 3d f9 53 db 3d 7b e9 d0 3d 90 af 57 3e
       0.03570722 0.10709376 0.10200783 0.21063066
000070 18 56 b9 bd a4 fd 8c 3d 91 cc 80 bc 6a 92 04 be
       -0.09049624 0.068843156 -0.015722545 -0.12946478
000080 e0 ba 69 3d fe d2 65 3d 89 90 1e be f3 f3 82 3d
       0.057062984 0.05610942 -0.15484823 0.06394186
000090 fc 99 d4 bd 3a 1d df bd 3d 62 d4 3d c7 e0 eb 3d
       -0.10380933 -0.108942464 0.103703 0.11517482
0000a0 a4 a6 2d bd 8d 5e b1 3c c8 5f 8d 3d 45 ae e4 bb
       -0.04239525 0.02165153 0.069030344 -0.0069787824
0000b0 0e 83 3b bd 8b 5e 0b be 0f eb 40 3d 52 ce 1b 3e
       -0.04577928 -0.13610284 0.04709917 0.15215424
0000c0 ab de 4e 3c 03 42 b2 3e fd 3f fb bd 65 85 1c bd
       0.01262633 0.34815988 -0.12268064 -0.038213152
0000d0 9f d7 9f 3d ca b2 2b bd fa 59 88 be e9 35 2f bd
       0.07804798 -0.041918553 -0.26631147 -0.042776022
0000e0 35 af 4f bd dd ab 38 bc fc 23 1d 3e 6d 7e e7 bd
       -0.0507042 -0.011271444 0.15345758 -0.11303411
0000f0 56 38 cb 3c 81 a9 de bc 5d c3 66 3d 8b 22 17 3e
       0.024807137 -0.027180435 0.056338657 0.14759271
000100 f0 f1 3d 3d c1 46 2a 3d cc 6a 96 3d 38 db 0e be
       0.046373308 0.041571382 0.07344589 -0.13950813
000110 e1 0d fe bd 6e b3 c6 3d 69 3c 9b bc de b5 94 3d
       -0.12404991 0.09702192 -0.018949704 0.07261251
000120 82 02 0b 3e d4 db 9d bd eb fa bb 3c ff ce a5 39
       0.13575175 -0.077079445 0.022946795 0.00031625477
000130 48 db fc bd f4 14 47 3c 91 a3 bd 3d cb f9 01 3e
       -0.12346512 0.012150992 0.092597134 0.12692945
000140 56 01 2a bd f6 73 ee 3d 81 fc 98 bd 4b 41 f7 3d
       -0.04150518 0.116432115 -0.07470036 0.120730005
000150 b1 b1 e7 bd 01 fb 92 bd 35 86 16 be 0a ce e5 bd
       -0.11313189 -0.071767814 -0.14699633 -0.112209395
000160 9a ba c0 bd e7 28 9e bd bf e9 80 3d 4a 5e b1 bc
       -0.094105914 -0.07722645 0.062945835 -0.021651406
000170 94 b5 9f bd 1d f2 36 bd 40 84 60 bd 38 10 cb bd
       -0.07798305 -0.04466449 -0.054813623 -0.09915203
000180 6e 7d 06 3d 5b ff 52 3c 0f 80 f4 3d 7a d6 3a 3e
       0.032834463 0.012878264 0.11938488 0.18245879
000190 63 2e d7 bd 7b 3e 9c bd 65 8e 01 3e fb 0f 5e bd
       -0.105068944 -0.07629105 0.12651975 -0.05421446
0001a0 be fd 13 bf 61 17 72 bd ec 29 d1 3d 5f a9 92 bd
       -0.57809055 -0.059104327 0.10213074 -0.07161211
0001b0 f4 60 a8 3d 18 17 9a 3d 52 07 b5 3d 08 1d 47 3d
       0.08221617 0.07523936 0.08839287 0.04861167
0001c0 16 d1 db 3d cd 7e 33 be c3 f4 eb 3d aa b6 48 3d
       0.10733239 -0.1752884 0.11521294 0.049002327
0001d0 c4 5c b4 3d d2 71 42 3d 79 48 89 bd 1f d7 20 3e
       0.08806756 0.04747183 -0.06703276 0.15707062
0001e0 60 a2 a6 bd 82 3d 4b 3d 69 27 20 3e ac 86 ef 3d
       -0.08136439 0.049619205 0.15640034 0.116956085
0001f0 b4 fd 0b be 1f 40 22 bd 2f d7 b8 bd 1e 96 fc 39
       -0.13670999 -0.039611932 -0.09025418 0.00048177032
000200 5a d6 d5 bc 5a 34 26 bd 74 67 dc 3d a4 1b 8a bd
       -0.026103187 -0.04057727 0.107619196 -0.06743553
000210 5a c0 cc 3d 29 5e 8b 3c 15 80 10 be 5d 9d 01 be
       0.09997626 0.017012672 -0.1411136 -0.12657686
000220 69 6a 13 be d3 ff 07 3e 7c e3 31 3d 5b b1 74 3d
       -0.14396061 0.13281183 0.043429837 0.05973945
000230 80 5b 69 bd 81 5c db 3d 3f 75 00 3e 44 1e c1 bd
       -0.056972027 0.10711003 0.12544726 -0.09429601
000240 a4 a3 84 bd e2 8a be 3d 93 73 bc 3d 20 18 af bd
       -0.064765245 0.093038335 0.092017315 -0.08549523
000250 e2 a3 84 bd 96 65 83 3e a0 d2 7c bc 56 af 4c 3e
       -0.06476571 0.2566344 -0.015431076 0.1998876
000260 20 40 53 3d 29 a6 b7 bd 72 55 f2 bc 43 87 86 3b
       0.051574826 -0.089672394 -0.02958176 0.00410548
000270 1b 30 1d bd 70 ea fc bd 0f 5d 7c bb 2b 80 93 3d
       -0.038375955 -0.12349403 -0.0038507616 0.072021805
000280 39 b8 6b 3d 38 d9 d5 3c bf fc d4 bd e4 a7 1d 3e
       0.057548735 0.026104555 -0.1039977 0.15396076
000290 89 4e 76 bc 8e 10 df 3d 9e 33 70 3c 33 7a 89 3c
       -0.015033373 0.108918294 0.014660744 0.016781902
0002a0 b8 c0 db bb 71 83 01 3e ca df 7c 3d 63 5f e8 bc
       -0.0067063235 0.12647797 0.06173686 -0.028365796
0002b0 7d aa 22 3e 79 4c ee 3d 2a 93 d3 3b 8d f4 89 3c
       0.15885349 0.1163568 0.0064567523 0.016840244
0002c0 16 8d 09 3e 3a 20 57 3e 71 75 4d 3d dc 70 ea 3c
       0.13432726 0.21008387 0.05016083 0.028618269
0002d0 34 a2 47 3d 26 d3 ee 3d f3 68 d5 bd 07 89 bb bd
       0.048738673 0.11661367 -0.10420408 -0.09156995
0002e0 e9 5f bc 3d 8d e6 fa 3d fa b7 ea bd d6 f5 55 bc
       0.09197981 0.12251005 -0.11460872 -0.0130591
0002f0 a9 df c3 bd 4c 66 1e 3e 50 e9 aa bd 21 31 88 3d
       -0.09564144 0.1546871 -0.08345282 0.066499956
000300 f5 85 fa 3d 43 80 f0 3c 61 64 96 bd fb ae 71 3d
       0.122325815 0.029358035 -0.073433645 0.059004765
000310 8d 73 15 3e e8 ec 01 3c 3a 49 92 3d 2c 95 0b 3f
       0.1459486 0.007930018 0.07142873 0.54524493

fc.weight f4 [1, 50]
000000 07 b6 7c 3d d8 ed 08 3c 6b 55 81 3d 9d b3 03 be
       0.061697032 0.008357488 0.0631512 -0.12861486
000010 35 23 3e 3f b8 17 a7 3d 15 2b 43 be 72 8d d6 3d
       0.7427247 0.08158821 -0.19059403 0.10476197
000020 32 a9 6d be 38 35 bc bd 6a fc 82 3d 42 3c 90 bd
       -0.23209074 -0.09189838 0.063958004 -0.07042743
000030 90 61 ee bd 4f 74 0f be a8 9d 28 be b6 0c b5 3d
       -0.11639702 -0.14009212 -0.16466391 0.08840315
000040 da 75 f7 bc 76 c3 e9 bd 08 a6 b9 bd 8d ac 41 be
       -0.030207563 -0.11414234 -0.09064871 -0.18913479
000050 e7 db da 3d 4f 2e 16 3e d0 38 06 3f 77 c4 b3 3c
       0.10686474 0.14666103 0.5243044 0.021944268
000060 c3 a2 30 be 47 c9 20 3e 2a 48 86 3e 9a 4c 59 be
       -0.17249589 0.15701781 0.26226932 -0.21220627
000070 af 92 0e 3e d2 ff 5b bd 8a e0 08 3e 31 31 04 3e
       0.13923143 -0.053710766 0.13366905 0.1290939
000080 67 2e ac be 62 9b c1 bd 17 4d 11 3e 04 de 37 be
       -0.33629152 -0.09453465 0.14189564 -0.17955786
000090 70 60 a8 3d dc e3 ef bd da f4 1b be 12 aa 71 3d
       0.08221519 -0.117133826 -0.15230122 0.059000082
0000a0 c1 73 3a 3e 84 9e 3f bc 5a ef 0a 3e 5e d1 49 3e
       0.18208219 -0.011695508 0.13567868 0.19708773
0000b0 f1 9f 1f be 23 a7 26 3e c4 ad 18 3e 94 19 d7 3d
       -0.15588357 0.16274695 0.14910036 0.105029255
0000c0 be 0e 9b 3d 73 3f e2 be
       0.07571171 -0.44189033
