modelLSTM.pth (torch, 126562 bytes, 9 tensors)

lstm.weight_ih_l0 f4 [200, 1]
00000000: 9f88 fa3e eb5f f43e f0ee d93d a5c1 423f
00000010: 4202 423e cc64 4dbd 05b3 2f3f 3602 5d3e
00000020: 88b5 533e 9690 2a3f 2f55 ad3e 530a 443f
00000030: 1fe8 d13e 7117 383f dd73 063f db05 073f
00000040: 7936 153f e019 153f 8e8d ee3e e335 5b3e
00000050: a4dd 6abd 8555 ef3e ca22 773e e227 143e
00000060: 54c3 eb3d a907 e73e 8d1c e23e f51e 043f
00000070: 3fb2 813d 62ac a63e 8376 0e3f 7e75 f63e
00000080: b0a7 133f a64d c93e f179 cf3e 0a98 cb3e
00000090: 575c be3e 960e 1ebe 9a53 433d 180c ba3e
000000a0: e983 af3e 2bde c73e b49e 113f 8419 e73d
000000b0: 1ff6 1c3e 1948 c83e 0e54 9d3d 482c 0d3f
000000c0: 9671 693e eabb 473e fa52 633e 6472 143e
000000d0: aa84 673e d245 9c3f 8045 713e 7752 443b
000000e0: dcbb 343f a12a d33e eed7 193f 0930 413f
000000f0: 7bdb 4b3e 48cd 4bbf 8e33 443f 170d 9b3f
00000100: 19b6 423d 2c48 d73e b648 253f 2750 923f
00000110: 1baa 0a3f 9749 803f 161f 3fbf 2c79 0d3f
00000120: 09a3 fd3e 75a0 b93d 25ff 9a3e 68c3 733e
00000130: d35b 443e e814 053f e06f 19bf 528b bd3e
00000140: 27b5 193f cc1d 793f a9f5 d5bd 4acf 263f
00000150: b740 2d40 50cc 6f3e 9542 0b3e 369b a73f
00000160: 6da5 483e eebc 193e e60d f53e 82e7 2f3f
00000170: b0cc 913f 0989 b9bd 231b 3e3e 7c3a 6c3e
00000180: b9d3 0e3e ffac 39bd 24f5 973e 4a9a 18be
00000190: 08e1 9a3e 32de 443f e418 cd3c c4dd c23f
000001a0: 36a5 28be 206a 54bd 7a53 1a3f c603 14bd
000001b0: 8efc 063f ce02 693f 53e6 dd3d 488e b53f
000001c0: 5cd2 373f ac48 533f 7014 57bf 7045 1e3e
000001d0: 5283 0b3f 89e2 913f d0fb bb3e 6deb a4be
000001e0: 2976 373e 691e 2fbf 88e3 003f c334 f0bb
000001f0: 6ab1 74be 2d9d 61bf 2f6b 603e def5 6dbe
00000200: 4a8a 75bf 0ec4 bebd 2472 d03e 08bc febe
00000210: be9d 2abf 855c 1cbf 21bf b33f 7b44 dfbd
00000220: d4ec 153c efd0 b03e 2057 5abd 175c 93bd
00000230: 1d2b 92be c8b7 41bf 0dc2 633f 9197 acbd
00000240: e38c 143e f72d c43d 5f33 d2bc ef2a 0f3f
00000250: a29f cd3e 4fc7 93be 3b47 fe3e b264 1f3f
00000260: ee43 983e e1d9 213f 9ac4 e33e 04b6 8b3e
00000270: 2e9f 263f 5f42 ea3e 1022 f43e a36b 2e3f
00000280: 6750 b13e 8104 373f 0038 b23e 29fb 433f
00000290: b24e 013f f5fa ee3e 6a42 043f 34db 913f
000002a0: 35fa f13e aa4b b33e 137f a6bd 200f aa3e
000002b0: 9d82 e93e e33a c33e f617 2e3e 96fb e63e
000002c0: 728f 113f 6c96 193f b7b4 4fbd a8f0 2a3f
000002d0: aa96 3e3f 2ff1 113f d7de ed3e b7a3 943e
000002e0: 6078 d23e 5997 b23e b00f ab3e 3298 873d
000002f0: 8356 e23d 0016 db3e 4610 b33e 75bd 0b3f
00000300: ef71 543f ac64 783d ea2c bc3e f308 023f
00000310: 10e8 3b3e 895a e33e 4629 b93e f71f 2ebd
0.4893236 0.4772943 0.10641277 0.7607673 0.18946174 -0.050144956 0.6863254 0.21582875
0.20674717 0.6662687 0.33854052 0.76578254 0.40997407 0.7191077 0.52520543 0.5274331
0.58286244 0.5824261 0.46592373 0.21407275 -0.05734028 0.46744934 0.24134365 0.14468339
0.11511865 0.45123032 0.44162408 0.51609737 0.06332826 0.32553393 0.55649585 0.48136514
0.57677746 0.39317054 0.4052272 0.39764434 0.37179825 -0.15435252 0.04768715 0.36337352
0.34280327 0.39036688 0.56882787 0.112841636 0.15328263 0.39117506 0.07682048 0.5514569
0.22797236 0.19505277 0.22199622 0.14496762 0.22609201 1.2208807 0.23561668 0.002995638
0.7059915 0.4124346 0.6009511 0.7546392 0.19907944 -0.7961011 0.76641166 1.211337
0.047536943 0.4204725 0.64564073 1.143071 0.5416581 1.0022458 -0.7465681 0.5526302
0.49538448 0.09063808 0.30272785 0.2380501 0.19175653 0.51985025 -0.5993633 0.37020355
0.6004204 0.9731109 -0.104472466 0.6516005 2.7070749 0.23417783 0.13599618 1.3094242
0.19594355 0.15013477 0.47862166 0.6871263 1.1390591 -0.090593405 0.1856504 0.23069185
0.13947953 -0.045330998 0.29679215 -0.14902607 0.3024981 0.76901543 0.025036283 1.5223927
-0.16469273 -0.05185902 0.60283625 -0.03613641 0.5272912 0.91019905 0.108349465 1.4184046
0.7180536 0.82532763 -0.8401556 0.15456176 0.54497254 1.1397258 0.36715555 -0.32210866
0.17916168 -0.6840578 0.50347185 -0.0073305084 -0.23895803 -0.88130456 0.21915887 -0.23238322
-0.9591414 -0.09314738 0.40712082 -0.4975283 -0.66646945 -0.61078674 1.4042703 -0.109017335
0.0091507025 0.34534404 -0.053305745 -0.07195299 -0.28548518 -0.7567105 0.88967973 -0.084273465
0.14506869 0.095790796 -0.025659261 0.55924886 0.40160853 -0.28862998 0.4966372 0.62263024
0.29739326 0.6322308 0.44485933 0.27287304 0.6508664 0.45753762 0.47682238 0.6813299
0.34631655 0.7149125 0.3480835 0.76555115 0.50510705 0.4667584 0.5166384 1.139502
0.47261205 0.35018665 -0.08129706 0.33214664 0.45607463 0.38130865 0.17001328 0.4511382
0.56859505 0.5999515 -0.050709452 0.6677346 0.74448645 0.5700864 0.46459076 0.29031155
0.41107464 0.34881094 0.33410406 0.06620826 0.11051657 0.42790222 0.34973353 0.54585963
0.8298635 0.060642883 0.36753017 0.50794905 0.18350244 0.4440501 0.36164302 -0.042510953

lstm.weight_hh_l0 f4 [200, 50]
00000000: d28c 323c 929e c0bd b2c5 4cbe e37e 32be
00000010: 6f68 9cbd 1b33 483e 05cf cdbe 2b44 25be
00000020: 5f3f 3b3e f27d e2bd 8d8c be3d bbe0 a5be
00000030: 523b 62bd 9e4f 42bb 671c c33e 448f 06bd
00000040: a5ba b53d faa0 1bbe 2308 0a3e fef3 01bb
00000050: 27af aabd 847d 103e 70a1 c03d e297 663d
00000060: 1f00 15be f3cd 2f3e 73a9 623e 3f42 a83c
00000070: b250 773e 502e 8c3d 11a8 243e 6beb d8bc
00000080: 326e e93d d3bc f9bd 1941 f83c e5f9 01be
00000090: 57cd 393e dd2e 3abe 4ec1 003e 7491 a9bd
000000a0: 8a1d 44bd 03c7 32bd 7948 39be 594f 92bd
000000b0: c3b9 0f3e cfeb 0abc b23e 54be 392d 863c
000000c0: 00c0 e33d 7fed fb3c 4e83 433f 6d99 c6bd
000000d0: 04b2 babe 6885 0d3e 964f b3be 5c20 133f
000000e0: e9d3 8dbf 8d20 afbe 0e10 bf3e 832a 1f3f
000000f0: cf24 953e b697 06bf 334a b83e c95f 193f
00000100: 8cd4 863e c871 0b3f 0de2 cb3e 493b 313f
00000110: 5b90 003f c019 55bf 268b 54be 6807 c7be
00000120: 29d5 0c3f 858b 263f 1744 c8be 746c 8b3e
00000130: eb60 b43e 8a77 debe 8da4 173f 336c d5be
00000140: f3a6 073f 23e8 1bbf 2458 773f 0a2d 9dbe
00000150: 97d3 813f 9227 16bf b366 4a3f 8c1d e13e
00000160: d484 1f3f d2e1 fbbe 90a9 cbbe 1561 f0be
00000170: 01d1 233f 8a06 a4be b66e 923e d663 d63e
00000180: eae8 f9be cb00 bc3e 21e6 033f 1a41 123f
00000190: dda5 f13d db56 8ebd 41cb 62bd 7ca2 de3d
000001a0: fb41 aebd 074b 3d3e f76c 0cbe 2bac 8ebb
000001b0: 6e58 123e 9ff8 883d 22c5 093d 9b76 a0be
000001c0: 668a cd3c ca74 6dbd 29e0 59bd c831 4fbc
000001d0: d21d 8dbd a379 fd3c 9078 f2bc be54 f83d
000001e0: 270a 08bd 6e2c f6bd e3dd a23d a933 18bd
000001f0: ccbc 173d dc9c 883e 1e5c 3a3e 08da 1bbd
00000200: b830 ba3e aad3 783d 8409 d03d b9cd 74bd
00000210: 583a 8b3e cbb4 b0bc 7cf5 50bd 699f 36be
00000220: 8a5a 073e bfd3 b1bd 1824 003e 5095 80ba
00000230: 7b43 01bd 191c 92bc 758f 4c3b d99d 3d3d
00000240: 7435 62bd 67fd bc3b 11b6 0cbd e94c 4c3e
00000250: 9442 1a3e f5a2 6c3e fd3f 5a3f 4635 343e
00000260: 5b13 f1be ccfe aa3e 4474 0fbf 80be 193f
00000270: b219 8dbe 96e2 f4be 5792 103f edfc 783f
00000280: 938b f63e 744c 11bf 1a23 1d3f 3016 3f3f
00000290: 59e8 3bbe 16e1 123f 7ae4 243f f7cd 9b3f
000002a0: 0e03 3e3f 8f3f 9dbf 1836 acbe 1bf1 44bf
000002b0: eff2 1e3f acf5 ee3e c06b 0fbf b235 86bd
000002c0: 0a84 2c3f 635b 06bf 494d 963e d570 e2be
000002d0: 3062 5c3f 01ed 25bf eb87 aa3f 7c93 fabe
000002e0: 0071 b73f 980b e7be 8207 1c3f 151e 303f
000002f0: f0e3 353f f66e 0bbf 6627 14bf eed7 34bf
00000300: a36e 943f 60fb cbbe 1beb 1f3f 6a5d bb3e
00000310: 4628 acbe 9034 183f 2def 2f3f e6f3 433f
00000320: 48d0 bcbc 7021 5d3d 694e 6dbd 843a 133e
00000330: fa2f 9c3c bac8 2ebd a960 aa3d 6724 2fbe
00000340: 14d4 533e 4ea1 2dbc d772 c03c 2913 01be
00000350: 258c 15bd aff6 363e c4bd f03c 2043 2d3e
00000360: 4df0 563e fa33 2e3c d383 c7bc dbc9 65bd
00000370: 5357 d7bd bb83 67be 04cd 533e 4d8e d43b
00000380: 3113 adbd e992 ef3d 12f3 593d 99da 7cbd
00000390: 3527 b0bd 9a5c d5bd 369a e0bc 8534 27bc
000003a0: 4d2c 32bc e52a 06bd c3d2 8abc 1a1b a6bd
000003b0: af6e d3bb 67f6 dd3d 024f a8bd 3edf 38be
000003c0: 28ae 34be bbf2 c33c fb64 0f3e 3578 0bbe
000003d0: 9c8e 6fbc 6b3c 03bd aeb3 dabd 9620 a73d
000003e0: 989f a73d 44b3 f83d 6852 e33d a61c c5bd
000003f0: 7f43 91be c3bf 70bd 3125 ecba e4d9 e43d
0.010897832 -0.09405245 -0.1999729 -0.17431216 -0.076371066 0.19550745 -0.40197006 -0.16139285
0.18285893 -0.110591784 0.09304152 -0.32398018 -0.055232354 -0.0029649506 0.38107607 -0.032851472
0.0887349 -0.15198126 0.13479666 -0.0019829269 -0.08334189 0.1411038 0.09405792 0.05629719
-0.14550827 0.17168407 0.22134952 0.020539401 0.24151877 0.06844771 0.16079737 -0.026479444
0.11397971 -0.121942185 0.030304478 -0.12692983 0.18144737 -0.1818194 0.1257374 -0.08279696
-0.047879733 -0.043646824 -0.18094052 -0.071440406 0.14035706 -0.008479073 -0.20727041 0.016378986
0.111206055 0.030752895 0.7637223 -0.096972324 -0.3646394 0.13820422 -0.35021657 0.5747125
-1.1080295 -0.34204522 0.37316936 0.6217424 0.29129645 -0.5257524 0.3599411 0.5991178
0.26334035 0.5447049 0.398209 0.69231087 0.5022027 -0.83242416 -0.20756206 -0.38872838
0.55012757 0.6505664 -0.39114448 0.2723118 0.35230193 -0.43450576 0.5923546 -0.41684112
0.5298912 -0.6090109 0.96618867 -0.30698425 1.0142697 -0.5865413 0.79062957 0.43967855
0.62312055 -0.49195725 -0.39777803 -0.46949068 0.6399079 -0.3203624 0.2860009 0.41873044
-0.48810512 0.36719355 0.51523024 0.5713059 0.11799214 -0.0695016 -0.05536962 0.10870835
-0.085086785 0.18485652 -0.13713442 -0.00435402 0.14291546 0.06688046 0.033635266 -0.3134049
0.025090408 -0.057972707 -0.05319229 -0.012646146 -0.068904534 0.03094179 -0.029598504 0.12125538
-0.033212807 -0.12020193 0.07952478 -0.037158642 0.037045285 0.26682174 0.18199202 -0.038049728
0.36365294 0.060748734 0.10158065 -0.059766505 0.2719295 -0.021570584 -0.051015362 -0.17834248
0.13218132 -0.086829655 0.12513769 -0.0009810124 -0.031558495 -0.017835664 0.0031213437 0.046293113
-0.055226758 0.0057675126 -0.03435332 0.19951214 0.1506446 0.23109038 0.8525389 0.17598447
-0.4708508 0.3339752 -0.5603678 0.60056305 -0.27558666 -0.4782912 0.56473297 0.97260934
0.48153362 -0.56757283 0.61381686 0.7464323 -0.18350352 0.57374704 0.6441113 1.217223
0.7422341 -1.2285022 -0.3363502 -0.769304 0.6208944 0.46671808 -0.5602379 -0.0655321
0.67388976 -0.52483195 0.2935584 -0.4422671 0.8608732 -0.64814764 1.3322729 -0.48940647
1.433136 -0.45126033 0.60948956 0.687959 0.7105093 -0.5446619 -0.5787262 -0.7064198
1.1596264 -0.3984022 0.6246812 0.36594707 -0.33624476 0.59455204 0.6872433 0.76544034
-0.023048535 0.053986967 -0.057936106 0.1437779 0.019065846 -0.042671897 0.08319218 -0.1710373
0.2068637 -0.01059754 0.02349226 -0.12604965 -0.036510605 0.1786754 0.029387362 0.16920137
0.20990105 0.010632509 -0.02435485 -0.056100708 -0.10514703 -0.22608845 0.20683676 0.00648669
-0.08450926 0.11697943 0.053210326 -0.06173191 -0.08601228 -0.10418053 -0.027417284 -0.010205393
-0.01087482 -0.03275575 -0.016946202 -0.08110638 -0.0064524035 0.10838013 -0.082181945 -0.1805391
-0.1764456 0.023919454 0.14003365 -0.13620074 -0.014621403 -0.03204004 -0.106788024 0.08160512
0.08184737 0.12143567 0.11099702 -0.09624605 -0.28371808 -0.05877663 -0.0018016455 0.11174372

lstm.bias_ih_l0 f4 [200]
00000000: 806f 593e fccf 853e a941 d93b 57df 073f
00000010: 8fe5 c23c a41a 783c 0b29 3e3f 579e 843d
00000020: ca53 423d 9552 d23e 3d88 353d dce8 723f
00000030: 774b d73e 5ea0 7c3e b832 1b3f 862e 453e
00000040: 211f 7a3e bc2a 983e c126 793d 1c09 113f
00000050: 8e11 0b3e e37a 713e 8115 9b3e d97c 0f3e
00000060: ad0f 223e 355b 013f 1d73 92bc 87fd 623d
00000070: 6057 dd3e 748e c13d 7b0a f63d 0e31 8b3e
00000080: f854 6e3f 4c7d 813e 5d45 043f 9a82 8f3e
00000090: c3e9 873e 2a85 0e3e a8f7 1d3d 31b5 953d
000000a0: 10a3 183e f20e 343e c9ec 2a3f 04a3 513e
000000b0: a2b7 a13c 8ccc 183e 815f 18bc 30c7 483e
000000c0: 448a a03e 310c f03e 0d70 123e ced5 113e
000000d0: c146 b2bd 3600 433d bf3e ccbd dc10 ec3d
000000e0: d54b 1a3f 437b 053e 9f93 8bbd 26a1 97bc
000000f0: 7628 033d 248e 883e 8c8b 393e a217 2d3d
00000100: 0005 cc3e 0487 ce3d 181b c23d 425c 1e3d
00000110: cc56 b6bc af97 613b 87d5 b3bc 6b15 b23d
00000120: 3a3f 72bd 88fc f23d 15a7 833c 3caa 9f3c
00000130: 8b2b 4b3e 87d8 ef3d dce9 dcbd 4238 cdbc
00000140: 2101 58bd c613 9c3d c37b d83e 62e4 2fbd
00000150: 76c4 2f3d 5000 d53d 5600 94bc d8a7 68bd
00000160: 9a1a 2a3d 553f e63b 36eb 193d 6247 c13c
00000170: 0b6b 89bd 5495 c03d c356 063e 4ae0 353e
00000180: d1b8 fbbb c1f1 2e3d a64a eb3d 2366 e2bd
00000190: 8504 793e 194a 00be 48ac 07be ca80 2fbe
000001a0: 2e2a 33be 6a91 273e ad4a b6be 8c31 fdbd
000001b0: 2aa6 ac3d 4cd1 dd3d 30a4 5c3d 48b1 7bbe
000001c0: d852 c33d 3b54 cc3d b1d6 2f3e 7243 2a3d
000001d0: 67b0 36bc 5a75 b93b 6ed3 a03d 4331 dabd
000001e0: cc5f 153d 7b9e b3bc 1d53 7a3d 99a2 833c
000001f0: 16e7 b5bd a608 323e 63e9 2d3d 9ee9 bebd
00000200: b0c5 053e 178d 05be 1f7a ad3d e355 91bb
00000210: 620f b73e 7961 59bd 8100 1f3e cb29 67be
00000220: e10b 2f3e b510 623d 4597 fe3c 00f4 41be
00000230: 8f1d 31bd 877f 593c f216 74bc 499c 36be
00000240: db1f b33d bc28 333e 0343 abbd 1437 febd
00000250: 9ce6 0b3e b3e6 2b3e 710b 583e 0602 9a3e
00000260: 83c1 713e 4221 153f ea2c 383d 411d fa3d
00000270: 038e 4d3f 442c 803d 645a c63d 0c14 ed3e
00000280: bc9c aa3d eb5a 643f 8aa0 da3e e5a4 3d3e
00000290: 7140 2d3f c04a 5c3d ff66 303e ca94 5b3e
000002a0: 4936 6a3e 89ad eb3e 0a11 e63d 5912 dd3e
000002b0: dea9 503e 6981 483d 7554 4f3e 5bc4 1a3f
000002c0: f19d 3f3e 0f96 0d3e de40 253f 397f 00bd
000002d0: 2f81 0c3e acfc c33e 9a3c 7a3f e973 113e
000002e0: 759a 013f 5615 233e 7297 bc3d 28d9 c33d
000002f0: 6d0d 223e edce 093d 90de 1b3e 291c b93e
00000300: 8f5c 243f b277 2e3e 11c4 ad3d fcfb 4f3e
00000310: 3cca ab3b 6cc2 8c3e 6afd 983e 1346 873e
0.2123394 0.26135242 0.0066301418 0.53075165 0.023791103 0.01514307 0.74281377 0.064755134
0.04744319 0.4107863 0.04431938 0.94886565 0.42049763 0.2467055 0.60624266 0.19256029
0.24425937 0.29720104 0.060827974 0.56654525 0.13580915 0.23582034 0.30289844 0.1401247
0.15826292 0.50529796 -0.017877156 0.055417564 0.43230724 0.09450999 0.12013718 0.27185863
0.930984 0.25290906 0.5166834 0.2802933 0.26545534 0.13917986 0.03856626 0.0730995
0.14905953 0.17583826 0.66767555 0.20472342 0.019740883 0.14921778 -0.009300114 0.19607234
0.31355488 0.468843 0.14300556 0.14241716 -0.087049015 0.047607623 -0.09972905 0.11526653
0.6027196 0.13035302 -0.06815266 -0.018509459 0.03202101 0.26670945 0.18119639 0.042258866
0.39847565 0.10084346 0.09477824 0.038662203 -0.022258185 0.0034422686 -0.021952404 0.086954914
-0.05914233 0.11864573 0.016070882 0.019490354 0.19840829 0.11711221 -0.10786793 -0.02505124
-0.05273545 0.07620959 0.42281923 -0.042942412 0.04291197 0.1040045 -0.018066566 -0.056800693
0.041529275 0.0070265927 0.03757783 0.023593608 -0.0670987 0.09403482 0.13119034 0.1776134
-0.007681944 0.042711023 0.114888474 -0.11054637 0.2431813 -0.12528266 -0.13249314 -0.17138973
-0.17496559 0.16364065 -0.35603848 -0.12362966 0.08430131 0.10830936 0.05386752 -0.24579346
0.095372856 0.09977003 0.17171742 0.041568227 -0.011150456 0.0056597413 0.07852827 -0.10653927
0.036468312 -0.021926155 0.06111442 0.016068744 -0.08881967 0.17386112 0.042458903 -0.09321903
0.13063693 -0.13042103 0.084705584 -0.0044352873 0.35753924 -0.053071473 0.15527536 -0.22574537
0.17094375 0.055191714 0.03107799 -0.18940735 -0.04324108 0.013275034 -0.014898049 -0.17833056
0.0874631 0.17496008 -0.08362391 -0.12412849 0.13662189 0.16787224 0.21098115 0.3007967
0.23608975 0.5825387 0.04496471 0.12212611 0.8029482 0.06258443 0.096852094 0.46304357
0.08330676 0.8920123 0.42700607 0.18519934 0.67676455 0.053782225 0.1722679 0.21443477
0.2287227 0.46030834 0.11233719 0.4317806 0.20377299 0.04895154 0.20247062 0.60455865
0.18712594 0.13826774 0.64552104 -0.03137133 0.13721155 0.3827871 0.9774872 0.14204372
0.5062631 0.15926108 0.092085734 0.09562904 0.15825434 0.033644605 0.1522162 0.36154297
0.64203733 0.17037848 0.08484662 0.20310968 0.005242614 0.27492082 0.2988084 0.2642065

lstm.bias_hh_l0 f4 [200]
00000000: 1c4b 003e 3323 d03e e87c 443e c891 193f
00000010: 4621 003e 20a6 443e dff6 283f 9609 213e
00000020: 0445 193e 663c b33e b098 3abd cc6c 833f
00000030: a95d 8a3e f132 643e 2b1f 283f e970 ae3d
00000040: 9efd e93d 48eb 813e 0d2b 873e 49d5 023f
00000050: 14b2 f13d 7f0b b93e 4b0b ea3d ddef 993c
00000060: abd7 3b3b 97e9 0d3f a613 5b3e b926 3c3e
00000070: df61 1a3f 94d5 663e 5c97 963e 858e 8e3e
00000080: 8e69 583f 5586 423e 69c5 a73e 3ac1 d33d
00000090: 30b4 943e 901b 853e aff0 0f3e a0b3 cc3d
000000a0: 835a 643e 7667 933e 3ade fb3e c628 44bc
000000b0: db1c 413d 9c58 4cbd 1bc0 d23b ef04 ba3e
000000c0: 6377 a73e d41a 9e3e 8496 073e 2ad2 4e3d
000000d0: 62b2 9b3d f09c 4e3e f27e c63d 0d12 62bc
000000e0: 3e45 c53e d625 f2bc 0d69 d13d 04ea 51bd
000000f0: ba01 9bbd 273a 6a3e 14bc 473e c2c9 b93d
00000100: 06ee 9e3e 8cbb 053e 1b95 223e b8f2 25bd
00000110: 5836 88bc cabe 053e b61a 183d cc63 43bd
00000120: 30a2 423b bc89 48bd 7315 f03d 636f 8a3d
00000130: 6d86 8c3d cac2 8dbd f646 e8bd afd1 283e
00000140: 1966 aa3d c8ff 453e cd1d be3e 4116 663d
00000150: 57cd 11be 1389 e8bc 0cdf 8b3c 3033 53bd
00000160: 7d3a ed3d 947b cebd c3d2 af3c 7d92 67bd
00000170: 51dc 383e 2da2 7abd 1c45 ee3d 6d43 b93d
00000180: 9350 7bbd 8801 683d d16f 203e 1659 8cbd
00000190: 432b 5f3e 8afb 37be e3a7 febd 8ab5 d9bd
000001a0: 48a2 34bd 8041 043e 4117 83be 656e 3dbe
000001b0: 6f5c 0b3e 91dc f9bb 15d3 203e 1aaf a1be
000001c0: 208f e6bd f050 43bd 589c 0b3e d768 d43c
000001d0: 844f 923d ad45 b73d 6dc2 be3b 8f5f 90be
000001e0: 50ee 21be 9306 a43d 2823 213e f9c7 633e
000001f0: adbc dabd 178b 363e 377b 093e 3d93 9dbc
00000200: 5fed 9b3e a87a 823d 3121 7a3e 67d6 693c
00000210: 2964 b33e e290 a7bd 470c 0a3e ce4a ddbd
00000220: d947 153e b9c7 7f3c 08b4 1f3e 5744 32be
00000230: adef 13be d311 c5bd 0d83 5cbc ba3b 59be
00000240: f302 023e ecb5 343e ee36 26be 8114 8e3d
00000250: 3bbf 53bc 12d3 533e 18dc 803e 9376 d83e
00000260: 62c2 ef3d 8554 153f 67cc e83b b362 233e
00000270: 16dc 413f 811e 1b3e 200d dc3d 33e0 f63e
00000280: 23da 603e 86d1 3b3f 04c3 413e 4320 ce3e
00000290: fb21 373f 8cc9 bfbc e072 6f3e b75a 723e
000002a0: 671e 403e 4e74 ed3e f616 f73d 2aea c53e
000002b0: 9153 4d3e 5609 483e 8e72 0a3e 2731 133f
000002c0: 1a35 dc3b 4af2 7e3d 173d 233f 4d32 bc3b
000002d0: 2cd2 ea3d 5b13 4a3e e420 803f 994c f33d
000002e0: 1845 cd3e 0ec9 743d 2606 713e 2aa8 d03d
000002f0: eb95 5c3e 44fc f5bc 5441 623e d1b7 953e
00000300: 858d 1a3f e44e a23d e673 213e b2de 093d
00000310: 415a ce3d d47b 9b3e 1be3 993e 8248 973e
0.12528652 0.40651855 0.19188273 0.5998807 0.12512693 0.19203997 0.66001695 0.15726313
0.14967734 0.35007018 -0.04555577 1.0267577 0.27024582 0.22285058 0.6567256 0.0851763
0.11425327 0.25374818 0.26400033 0.511067 0.11801544 0.36141583 0.11427935 0.018791134
0.0028662484 0.55434555 0.21394214 0.18374147 0.6030559 0.22542411 0.29412353 0.2784311
0.84536064 0.18996556 0.327678 0.103395894 0.29043722 0.2599759 0.14056657 0.09995198
0.22300152 0.28789872 0.49192983 -0.011972612 0.04714666 -0.049889192 0.006431592 0.3633189
0.32708272 0.30879843 0.13241011 0.050493397 0.07602383 0.20177054 0.09692182 -0.013798249
0.3852939 -0.029559057 0.10225115 -0.051248565 -0.07568689 0.22873746 0.1950534 0.090716854
0.31040972 0.13059825 0.15877192 -0.040514678 -0.016627476 0.13061062 0.03713485 -0.047702596
0.0029698722 -0.04895948 0.11722841 0.067595266 0.06861577 -0.06921919 -0.1134166 0.16486238
0.08320255 0.19335854 0.3713211 0.056173567 -0.14238487 -0.028385675 0.01707413 -0.051562488
0.115834214 -0.100821644 0.021462804 -0.056536186 0.18052794 -0.06118982 0.11634275 0.090460636
-0.06135614 0.056642085 0.15667655 -0.06852929 0.21793847 -0.17967048 -0.124343656 -0.10630329
-0.044100076 0.12915611 -0.2560368 -0.18499143 0.1360948 -0.0076251705 0.15705521 -0.31578904
-0.11257768 -0.04768461 0.13633859 0.025928898 0.07144073 0.089488365 0.005821517 -0.28197905
-0.15813565 0.080090664 0.15736067 0.22244252 -0.10680518 0.17826496 0.13425909 -0.019235248
0.30454537 0.06371051 0.24426724 0.014272309 0.35037354 -0.08181931 0.13481246 -0.108052835
0.14578189 0.015611582 0.1559602 -0.17408882 -0.14446898 -0.0962254 -0.013458979 -0.2121419
0.12696438 0.17647523 -0.16231892 0.069375046 -0.012924011 0.20685986 0.25167918 0.42277965
0.117069975 0.5833209 0.007104445 0.1595562 0.7572645 0.15148355 0.10744691 0.48217925
0.21958213 0.7336658 0.18922049 0.4025899 0.71536225 -0.023411535 0.23383665 0.23667417
0.18761598 0.46377796 0.12064926 0.38655216 0.2005141 0.19534811 0.13520262 0.57496876
0.0067201974 0.062242784 0.6376509 0.005743301 0.11465868 0.19733946 1.0010037 0.11879844
0.40091777 0.059762053 0.23537502 0.10188325 0.21541564 -0.030027516 0.22095233 0.29241803
0.6037219 0.079252034 0.15766868 0.033659644 0.10075808 0.3036791 0.3005608 0.29547507

lstm.weight_ih_l1 f4 [200, 50]
00000000: 4be8 413d 5ea9 b0bd c221 e2bd 0a0d b23d
00000010: 24a6 65bc d7b3 4bbd 89e4 993e c2ba 0f3c
00000020: 3645 d3bd 864e 87bd 0e63 143e 54c7 e63d
00000030: e888 a7bc 1245 c33d 3500 e8bd 5007 fe3d
00000040: b4cb 4d3d 9b86 26be 5c93 3a3e 844d 8f3c
00000050: 2768 c53d 512d a2bd 658c b93d 15cb 0dbe
00000060: 3c1a b0bd 0962 d7bc 2bd4 b63d e4c9 95bd
00000070: 4712 1fba 2e84 543d 4a85 cebd d0e7 24bc
00000080: 652e 90bd 40aa 663d f0cf 84bc 4f17 3b3c
00000090: 07de 1abe 85c2 acbd 0fbc a53b e97b 03bd
000000a0: 3c7f d2bc 71f5 513c 06fa 2a3e c15a e3bd
000000b0: e95f 9a3c f6ba b5bd d4f7 503d f7dd bf3c
000000c0: 27b0 073e cf2a 35be 67b1 c7bc bda8 c8bd
000000d0: 2af2 6abd 3888 df3d ad86 c63c 91b2 2f3d
000000e0: b176 9a3e 76fd 96bd eab3 193e b29a 5fbc
000000f0: 8810 5bbd 5cc6 803d 6219 34bd ef78 983c
00000100: fd2e 62be 2cac 43bd 06f6 183e dbd8 4d3d
00000110: 2091 843d d885 2ebe 0394 cdbc 4ba6 d0bd
00000120: 8b01 303d 093c 06be 3643 d4bd a2ae 3bbd
00000130: 358f 53bd 8216 17ba 28c9 66bd 52af a63d
00000140: 6d34 06bd 0aa5 153d 7b1b 53be 4533 593d
00000150: fbb2 d3bd dc14 0dbe 5b8a c0bd 77b9 01bc
00000160: 48fc 28be 2123 10bc 38e0 383d 4ff6 fcbd
00000170: 72b9 e2bd a8d7 b8bc c581 f0bd 7538 cfbc
00000180: 9573 073e c4b7 2a3e 6cb6 f93c 09bc 41be
00000190: d68d 853d 0d2c 85be 12e7 1d3d 6517 6cbe
000001a0: 6010 a93d ab3a 6d3d 4602 933e 45a2 acbd
000001b0: 50d3 583d a8e7 f3be 5f1d c0bc 85a5 e23e
000001c0: 3aa4 59be 5ba1 e9be ed4f 9d3e ec37 8ebb
000001d0: 665e 20be 6184 b73e 5e49 003d 8aa1 74be
000001e0: 338e bbbd c7d9 b23d 7364 10be 23da 233d
000001f0: 9871 663d c911 1fbf 7acd da3d 0ade 0bba
00000200: f83e 97be a6cb ea3d c9be f5ba fbe6 8f3c
00000210: 8007 d63d 2756 0dbe 8e84 6f3e 4327 cebd
00000220: fccc f63d d1d7 df3e 16d3 2d3c d692 8a3d
00000230: 38a1 973c ddba 8e3e 4379 fcbe 594d ffbd
00000240: 8bfa 353e 96bf 893d 21d4 e2bd 9973 89be
00000250: 69d5 cf3b c2ca 73bd 732e 923d 4d81 2e3e
00000260: 8e25 8d3d a3a3 923d 25e4 19bd 8762 51bd
00000270: 389d 0f3e 21ee b73d 9f44 84bd 5947 74bc
00000280: f8e9 653d 7fcf ac3d 7f9b 3a3e 571c 413e
00000290: 326d 83be 8f3d 933c c1ae d0bc 16a3 ae3d
000002a0: 9988 8ebd 5133 42be 409a e83c 663c 26be
000002b0: 6da9 f93b 956a 833d 992c 14be f470 42be
000002c0: c536 333e 4ef3 17be cd66 333d 6a51 a43d
000002d0: 38d8 773d 38ac f7bc 3338 91be ffcf a3bd
000002e0: b3a8 1b3e 2d54 04be 9acc 183e c678 d2bd
000002f0: 3ef2 f43d d8ac 01bb 0d56 2a3d 1a5e 0ebe
00000300: bf2b d23d 9197 d13d 4dc8 7c3d 2c57 6bbd
00000310: 19a4 22be e18c b0bd 72b5 4f3e 75ab 093e
00000320: e3d3 453e 42b3 0d3e 086a a83c 04d7 eabd
00000330: 6e1f 88bd e10f 233e 38db 4bbd 0243 45be
00000340: f04b 493e 640e a13c 6bc0 173d 4478 e5be
00000350: 194e 0e3e 3257 853e da03 00be 8644 0c3e
00000360: 2e1a a33e e9d8 26be 70fc 253e 7e41 93be
00000370: 3dc1 8abe ccc6 4dbe 07b5 ad3d ef01 043c
00000380: e447 e8bd f543 e63e a71a 993d c5da 11bd
00000390: 5662 c83e f921 d9bd 36c8 d23b c6b8 7abe
000003a0: 10a7 213d b13b ec3c 5b9e 41be 0a2a 88be
000003b0: 50aa 6d3e 42c0 dc3d d9a6 783d 4446 a4bc
000003c0: b42a f6bc f7dd f1bd bb2c c43d 93ce 1dbe
000003d0: 221c 4c3e f0f9 99bc bea4 5a3c 7a04 183d
000003e0: 6a2f 363d 8309 853b 3da0 93bc f12d a83d
000003f0: 1ec0 09be 08bc 0f3d ccfb c6bd 5e77 e3bd
0.047340672 -0.08626054 -0.11041595 0.08693893 -0.014016662 -0.049732056 0.3005717 0.008772554
-0.10315935 -0.06606774 0.14490911 0.112684876 -0.020451024 0.095346585 -0.113281645 0.124037385
0.050243095 -0.16262285 0.18220276 0.017493017 0.09639006 -0.079188 0.09059981 -0.13847001
-0.08598754 -0.026291864 0.089271866 -0.07313898 -0.0006068092 0.05188387 -0.100840166 -0.010065034
-0.07040099 0.056314707 -0.016212434 0.011419131 -0.15123759 -0.08435539 0.0050578187 -0.03210059
-0.025695436 0.012814865 0.16696939 -0.11101294 0.018844562 -0.088735506 0.051017597 0.02342127
0.1325079 -0.17692111 -0.024376584 -0.09797809 -0.057359852 0.109146535 0.02423414 0.042894904
0.3016868 -0.073725626 0.15010038 -0.013647722 -0.053482562 0.06287834 -0.04396952 0.018612353
-0.22088237 -0.047771618 0.149376 0.050255638 0.06472993 -0.17043245 -0.025094992 -0.10187968
0.04297022 -0.13108839 -0.10364382 -0.04582084 -0.051650245 -0.0005763547 -0.05634418 0.081389084
-0.03276484 0.036534347 -0.20615952 0.05302741 -0.10336872 -0.13777488 -0.09401389 -0.007917753
-0.16502488 -0.008797438 0.045135707 -0.12351667 -0.11070527 -0.02256377 -0.117435016 -0.025295475
0.13227685 0.16671664 0.030482493 -0.18919386 0.06521194 -0.2601017 0.038550444 -0.230558
0.082550764 0.05791728 0.28712672 -0.08429388 0.0529359 -0.47637677 -0.023451505 0.44266906
-0.21254054 -0.45630917 0.3072504 -0.0043401625 -0.1566101 0.35843185 0.03131997 -0.23889747
-0.09157982 0.08732944 -0.14100818 0.040002953 0.056260675 -0.62136513 0.10683723 -0.00053355156
-0.2954023 0.11464624 -0.0018748875 0.017566195 0.10450649 -0.13802396 0.2339041 -0.10066082
0.120508164 0.43719342 0.010609409 0.06766288 0.018509492 0.2787694 -0.49311265 -0.12465925
0.17771356 0.06725995 -0.11075617 -0.26846007 0.006342579 -0.059519537 0.07137766 0.17041512
0.068919286 0.071601175 -0.03757109 -0.051119354 0.14024818 0.08980966 -0.06458401 -0.014909589
0.056131333 0.08438014 0.1822338 0.18858467 -0.25669247 0.01797369 -0.025473954 0.085272
-0.06959648 -0.18964888 0.028393865 -0.16233978 0.007619074 0.06416813 -0.14470138 -0.189884
0.17501362 -0.14838907 0.04379921 0.08023341 0.060508937 -0.030233487 -0.2836319 -0.079986565
0.15201072 -0.12922736 0.149218 -0.10276942 0.119602665 -0.001978686 0.04158597 -0.13903084
0.1026225 0.10233987 0.06171446 -0.05745618 -0.15882911 -0.086206205 0.2028406 0.13444312
0.1931911 0.13837913 0.020558372 -0.11466792 -0.0664662 0.15924026 -0.04976961 -0.19263843
0.19657874 0.019660182 0.03704874 -0.44818318 0.1389698 0.26043087 -0.12501469 0.13698015
0.3185591 -0.16293682 0.16209579 -0.28760904 -0.27100554 -0.20095366 0.08481794 0.008057102
-0.11341837 0.44973722 0.07475787 -0.035609026 0.39137524 -0.10602183 0.0064325584 -0.24484548
0.039465964 0.028837057 -0.18908064 -0.26594573 0.232095 0.10778858 0.060705993 -0.020053037
-0.03004966 -0.118099146 0.09578844 -0.15410833 0.19932607 -0.018795937 0.013344942 0.037113644
0.04447881 0.004059972 -0.018020744 0.08211888 -0.13452193 0.03509143 -0.09715995 -0.11106752

lstm.weight_hh_l1 f4 [200, 50]
00000000: 9ff0 b13d 1c03 1c3d 1e90 83bc e718 d13d
00000010: 5964 95bd 0614 1d3d bca0 3d3f d8b1 07bd
00000020: 2684 533c a3d3 59bd 22b7 05be f43a 11be
00000030: 0dc0 a0bd 716f 803d 79c9 aa3d f0d8 2abd
00000040: fdad 1ebd 4d4b bcbd 980a 8dbd 7204 8e3e
00000050: efc3 163e a095 da39 68b7 b03b 0652 8abd
00000060: 0801 41be 775a 0d3e b3e7 78bd a0d0 93bd
00000070: 5053 0f3c fa71 8d3d a9ba 19be 79d0 4cbd
00000080: 0435 01be f33c 88bd 1d66 9fbd 7741 aabd
00000090: eeac a7bd 3a4a 5cbd 71ea 02bc 49b7 9e3d
000000a0: 2e84 a93d 9093 a43e b13d 84bd 33ae 06bd
000000b0: 7094 3dbe a2d2 0b3d 72d6 8abd 1f97 013e
000000c0: 207b 01be 083e efba 81de fc3d 0851 923d
000000d0: 6009 0cbe 947d aabd eaf4 e93d 1985 b63d
000000e0: 4030 ba3e fc6f b63d d176 cfbd 88f7 753d
000000f0: 29d7 b13c c9c7 f1bd 302f e0bd 2248 9cbd
00000100: a132 093e 57f4 68bd 3286 533d 357a 983d
00000110: 52be b53b 35f5 093e 916f 593d da38 023d
00000120: fb92 0d3e 917e 76bc 6006 c23d 457b 7e3d
00000130: 1732 0a3e 0c89 d9bd 88c4 d93d 371f 713d
00000140: 9bc4 753d 6033 58bd 1689 e4bc d9c0 273e
00000150: 60c0 83bd d1ac 703c e105 15be ebee 523c
00000160: ad18 dabd 9114 eebd b4da 4c3d cb26 fe3c
00000170: 1c8d 96bd 0bf2 bfbd 932d cdbd a3a3 45bd
00000180: 1e90 083d 8b71 393e c211 5a3c 9773 4f3d
00000190: 14d1 12be c87b e7bd e195 98bd 833b 7c3d
000001a0: b0b0 85bd af17 603c ac84 98bc f72d 823e
000001b0: 6910 e5bc ecf6 583d b768 6d3e 34c6 d43d
000001c0: 373b 043b 4bc9 b13d 66f1 c0bd aafe 30bc
000001d0: 60b3 b43c a5fe 1d3d a4d7 d93d 8358 943e
000001e0: ea33 c3ba 1303 48be ab04 4c3e c027 7e3d
000001f0: 1ef9 8cba f2fc 9b3c e2e6 1fbd 93bd 0e3d
00000200: a097 1e3e a4b1 ed3d 6800 b2bc aa12 04be
00000210: 99be 6f3d f2f2 bebd 2a5f f43c 1b62 0ebf
00000220: dd54 3b3d abbd ed3d bddc 53be 46c9 99bd
00000230: d233 993c ae80 00be 99fc db3c 52fb f33d
00000240: 2be4 80bd 5e09 483d cfb7 323e cb03 0bbe
00000250: 6889 923e 63a5 00be 9003 973d 1b8b 013e
00000260: 6f4f b8bd 8842 23bd 7e6f 95bd 5a72 193e
00000270: f026 85be ce2f e4bd 5331 b63d 09e5 203e
00000280: ef28 ef3c 8b2d bbbd 4fac 933d 911b c6bd
00000290: dd9d 14bc fcd4 583d 1a3f adbd 3f00 853d
000002a0: 6fff babc 694f b33d 2233 0bba eb41 aebd
000002b0: 2414 ae3d fa6f 78bc afab 02be 45b8 fb3d
000002c0: bd98 ffbc fbce d3bd 1da9 9ebc 1425 ddbd
000002d0: b91e 993d 500a 813d e4aa 063d 9ea5 9b3c
000002e0: 7b8c e7bd 64fc 8ebc e006 e33c 373f c83d
000002f0: 3c88 133e 6a38 f8bd 708c e3bd 2d96 99bd
00000300: 4ea4 bbbd baee 1b3d e34f 12bd 35a3 7c3c
00000310: b44d a33d 1308 1d3d ae4a 36be b0b0 833d
00000320: 805c 65bd 95da 193e b44b 053e f592 e6bd
00000330: 5462 a3bc abda 493d 6266 773e 38df ce3d
00000340: 0d47 723d d720 d73c 4b34 37be b1eb d3bb
00000350: d231 2fbe 1c76 08bd ca17 ebbd 6c12 103e
00000360: c3ec 743d 715e 9dbe 6c62 25bd abce 23bf
00000370: fcff 55bd 2de3 01be b1ef 54be d849 e2bd
00000380: 957b 4d3e 803d c93d ef7a a6bc 79d9 6f3e
00000390: 0169 67bd 852b 373e 5dc3 13bd df50 953d
000003a0: 079b 06bc f286 003e 8e6c e63d 27de fe3c
000003b0: d4af 3bbe 3447 1cbd 5ccb 683e d892 2c3d
000003c0: 1ff8 52bd 4898 1f3d 45ee 463e a395 60be
000003d0: 667f 3c3e 3826 1b3c fa60 4cbe 502a 56bd
000003e0: f270 0c3d d596 edbd dc5b ac3d 6403 133e
000003f0: 8359 9d3d 3017 48bd 7123 11be d455 793d
0.08688473 0.038088903 -0.016059931 0.10209828 -0.072945304 0.038349174 0.74073386 -0.03312859
0.012909925 -0.053180348 -0.13058141 -0.14182645 -0.07849131 0.06271256 0.08339209 -0.041710794
-0.038740147 -0.0919405 -0.06886786 0.27737767 0.1472318 0.0004169168 0.0053929575 -0.06753926
-0.1884805 0.13804041 -0.06076784 -0.072175264 0.008747891 0.06906505 -0.15012611 -0.050003503
-0.1261788 -0.0665225 -0.077831484 -0.08313268 -0.081872806 -0.053781725 -0.0079904655 0.077498026
0.082771644 0.3214383 -0.06457079 -0.032880973 -0.18513656 0.034136422 -0.067791834 0.12655304
-0.12644625 -0.001825274 0.12347127 0.07144362 -0.13675451 -0.083247334 0.11423667 0.08912105
0.36364937 0.08908078 -0.10130084 0.060050517 0.021709042 -0.11805684 -0.109465 -0.07630946
0.1339822 -0.056873646 0.05164165 0.07445184 0.0055463696 0.13472445 0.053084914 0.0317925
0.138256 -0.015044824 0.09473872 0.062129278 0.1349567 -0.10621843 0.106331885 0.05886766
0.06000195 -0.05278337 -0.027897399 0.1638216 -0.06433177 0.01468964 -0.14553024 0.012874345
-0.10649238 -0.116250165 0.05001326 0.031024357 -0.07351133 -0.09372338 -0.10018458 -0.04825176
0.033340566 0.1810972 0.013309898 0.050647344 -0.1433757 -0.11302906 -0.07450462 0.061580192
-0.06527841 0.013677522 -0.01861795 0.25425693 -0.027961927 0.052969858 0.23184477 0.10389367
0.0020176896 0.08680972 -0.09421043 -0.010802904 0.022058189 0.038572926 0.10636833 0.2897378
-0.0014892791 -0.19532423 0.19923656 0.062049627 -0.0010755395 0.019041512 -0.039038546 0.03484876
0.15487528 0.11606148 -0.02172871 -0.12897745 0.058531377 -0.09323682 0.029830534 -0.5561845
0.04573523 0.11608442 -0.20689674 -0.07509093 0.018701468 -0.12549087 0.026853846 0.1191317
-0.062935196 0.04883706 0.1745293 -0.13575666 0.28620458 -0.1256309 0.07373726 0.12650721
-0.08999526 -0.03985837 -0.07296656 0.14985028 -0.2600627 -0.111419305 0.088961266 0.1571237
0.029194323 -0.09139546 0.072106 -0.096732266 -0.009070841 0.052937493 -0.08459301 0.064941876
-0.022826878 0.08755381 -0.00053100486 -0.085086666 0.08499935 -0.015163416 -0.12760805 0.12291006
-0.031200761 -0.10342213 -0.019367749 -0.10798088 0.07476563 0.06300795 0.032877818 0.01899987
-0.113060914 -0.017454334 0.02771324 0.09777682 0.14407438 -0.12120135 -0.11110771 -0.07499347
-0.09162198 0.038069464 -0.035720717 0.015419771 0.07973805 0.03833778 -0.17801926 0.06430185
-0.055996418 0.15024789 0.1301716 -0.112584986 -0.019944347 0.049280804 0.2416015 0.10101169
0.05914979 0.026260776 -0.17891042 -0.0064673056 -0.17108849 -0.033315763 -0.11479147 0.14069527
0.059796106 -0.30736116 -0.040377066 -0.63987225 -0.05224608 -0.12684317 -0.2079456 -0.11049241
0.20066674 0.09826183 -0.020322291 0.23422803 -0.056496624 0.17887695 -0.036074985 0.072908156
-0.008215672 0.12551478 0.11251174 0.03111179 -0.18328792 -0.038153842 0.22733825 0.04213223
-0.051506158 0.038963586 0.1942683 -0.21932082 0.18407974 0.009469561 -0.19958869 -0.052286446
0.0342874 -0.116010346 0.08415958 0.14356762 0.07683089 -0.04885024 -0.14173676 0.060872868

lstm.bias_ih_l1 f4 [200]
00000000: e7b0 1b3e e053 e7bd 5bef f0bd 4736 49bc
00000010: 9d07 f7bb 8f29 ecbb 1119 2abe e36f 94bd
00000020: 7721 adbd 965b cbbd b5e1 e0bc f1f0 6c3d
00000030: 063b 50bd 7c97 abbd 9b20 0bbd 8527 d53d
00000040: 8d3b 883d 7071 0c3e ad33 883d 63f8 dcbe
00000050: 86c3 eb3b 73b1 f6bd a8a8 173d 5637 fa3d
00000060: 4b0d 2abd 1f80 e13d bb7c f8bd 8b29 dd3c
00000070: 3280 92bd bdb7 343d 3ab7 0abb d1a4 053e
00000080: 0286 1f3e d9cc fe3c 6521 c4bd 6f79 16bd
00000090: 1106 6e3d ab57 50bc 8493 453e fad5 18be
000000a0: 076a 3ebd bd50 ad3d ce33 ffbb ae9b 8fbd
000000b0: 66e4 c43b 9479 183e 2da8 51bd 83b1 ae3d
000000c0: 2b04 f2bc 7f5b a63c eb9c e0bc e9f2 493d
000000d0: 8ae0 99bd 38ef 083e 3806 95bb 206b afbd
000000e0: 9bc4 74be 5dc8 15be b52d 063d cea0 e0bd
000000f0: 9c49 013e 7c5b 25bd cac8 983d ab78 8ebd
00000100: 37ac 733d 3795 d83d 7b73 e43d 5cfe a6bc
00000110: f732 f13d 7dc1 623e 10d2 5e3d 6478 ea3d
00000120: 5ec5 523d 7e2d 133e f634 0dbd df0b 13be
00000130: 7240 25be f7db 9abd be2a 0a3e 04c4 08bd
00000140: e704 f33a 2265 993d 1ac0 d6bd e1ba 12be
00000150: 1032 c83d a41a 09be 206d 583d 2253 ab3d
00000160: 99f1 1a3c cb75 06be ae26 e3bc 8694 bd3c
00000170: b219 02be bae0 b0bd a119 6fbd e83d b63c
00000180: d669 723d 9129 9cbd 7690 193c 455c 02be
00000190: e1ab 443b 1885 023e 7daa d9bd 17dd 02be
000001a0: 4f11 583c e948 be3d bdc6 953b b467 65bd
000001b0: 64c9 163e 50fe 203e 1978 1ebc babd 56bd
000001c0: 459c b3bd 38df e8bd 2a06 c83c 249e a2bc
000001d0: 3f9b 91bd 5d3a b93b b189 5cbd c9d9 f43c
000001e0: c3af ed3d f090 e2bd 9e3b d93d 1345 c6bd
000001f0: b79e 88bc f146 08bd 0b3d b73d 551f aabc
00000200: 3863 dfbd 5d69 c13d 601b e1bc c071 163e
00000210: f6dc 11be ff28 8f3d 6cfb bf3d d042 95bd
00000220: f4ae 67bd 5e8b 183d e93e c1bd af04 e23d
00000230: 314e afbb 2bff 6ebd aa08 0f3e 4479 a6bd
00000240: 6df8 533d 13cd 67bd 940b e5bd c1f3 0d3d
00000250: 8cfd 0ebd c092 f6bd 3836 b73d 6a51 7bbd
00000260: 9a9d 613d e013 d0bd 5810 84bd 881a 43bd
00000270: 21a3 91be c817 8f3d 594a ccbc a26b 77bd
00000280: edfa fb3d 044e b0bd f1b7 943d 3939 ce3d
00000290: 0d94 d2bd 1988 cdbd 2ba7 16bc 50d1 afbb
000002a0: fde0 9d3c c5fa 573e ed0a 29bd 01f2 c43d
000002b0: 852b df3d 7198 a53d 0b26 74bd 2a20 353d
000002c0: 9c38 1a3c ce87 af3d 5249 683d e1f7 013e
000002d0: f016 6f3d 4d46 293e c377 0abd 0db0 34bd
000002e0: 85bb ab3c ce7e 243e fdd5 363d d516 acbd
000002f0: c7d9 273d 8622 673d 3a91 903c 7d87 e6bd
00000300: f023 803d e98d acbc 6ac8 893e f7ff 013e
00000310: a153 24bd 4fd2 403d a6ee 3a3e fd37 41bd
0.15204202 -0.11295295 -0.117644034 -0.012281007 -0.0075387494 -0.0072071026 -0.16611125 -0.07247903
-0.084536485 -0.09929578 -0.027451375 0.057846967 -0.05083754 -0.08378503 -0.033966642 0.104079284
0.066519834 0.13715148 0.066504814 -0.43158254 0.007194939 -0.120455645 0.037026078 0.12217586
-0.041516583 0.11010765 -0.121331654 0.026997348 -0.071533576 0.04412054 -0.002116634 0.13051154
0.15578464 0.031103538 -0.09576682 -0.0367369 0.058111254 -0.012716214 0.19294554 -0.14925376
-0.046487834 0.08462665 -0.007788158 -0.070121154 0.0060086725 0.14890128 -0.051185776 0.085299514
-0.029543003 0.0203073 -0.027418574 0.049303923 -0.075135306 0.13372505 -0.0045478605 -0.08565354
-0.23903124 -0.14627214 0.032758433 -0.10968171 0.12625736 -0.04037045 0.074601725 -0.06956609
0.05949041 0.105753355 0.11154839 -0.02038496 0.11777299 0.22144122 0.05439955 0.11448744
0.051457755 0.14372823 -0.034474336 -0.14359997 -0.16137865 -0.07561486 0.13492867 -0.03339006
0.001854089 0.07489993 -0.10485859 -0.14329101 0.09775174 -0.13389069 0.052838445 0.08365466
0.009457015 -0.13130872 -0.027728405 0.02314211 -0.12705114 -0.08636613 -0.05837405 0.022246316
0.059182964 -0.07625116 0.009372821 -0.1273051 0.0030009674 0.12746084 -0.10628221 -0.12779652
0.01318772 0.0929125 0.0045708106 -0.056007102 0.14725262 0.15722013 -0.009672188 -0.05242703
-0.087700404 -0.113707006 0.024417002 -0.019850798 -0.07109689 0.0056527094 -0.05384225 0.029889004
0.116057895 -0.11062801 0.10607074 -0.096811436 -0.016677244 -0.03327078 0.0894719 -0.020766893
-0.10907596 0.094439246 -0.027478874 0.1469183 -0.14244446 0.06990241 0.09374127 -0.07288134
-0.056563333 0.037242286 -0.09435827 0.110360496 -0.0053498973 -0.058348816 0.13968149 -0.08128598
0.05175059 -0.05659206 -0.11183849 0.03465629 -0.03490977 -0.12039709 0.08945888 -0.06135694
0.05508194 -0.10160041 -0.0644843 -0.047632724 -0.2844477 0.06986958 -0.024937795 -0.06040538
0.1230372 -0.0860863 0.072616465 0.10069508 -0.10282145 -0.10035724 -0.009195129 -0.005365528
0.019272322 0.21091755 -0.041270185 0.09616471 0.108969726 0.080857165 -0.059606593 0.044220127
0.009412911 0.085708246 0.05671055 0.12692215 0.058371484 0.16530724 -0.03380562 -0.044113208
0.02096344 0.16063997 0.04463767 -0.08402792 0.040979173 0.05642941 0.017647374 -0.11256311
0.062568545 -0.021063762 0.26910716 0.12695299 -0.040118817 0.047075566 0.182551 -0.047172535

lstm.bias_hh_l1 f4 [200]
00000000: e7c8 0c3e 194a f13d 45a7 723c 48eb a43d
00000010: e9e6 003e 0567 67bd dcda dabe 621f 933d
00000020: c87f 6abb ca3f 2b3d ba71 c7bd 41bb cbbc
00000030: 48b3 dc3d 0b1d 0b3e 55db 59bc 2d24 363d
00000040: 4dc6 e13d 650d 3d3e 9e3e 2c3d fb84 64be
00000050: 4ce1 be3d c028 e93c 9e33 a8bd 8ce2 ebbc
00000060: b6f5 acbd 427b 8b3b 3afb 073d 5f16 c33d
00000070: 4c8a e2bd 9764 a23b 0978 583d c8d0 043e
00000080: 4899 7ebd 8b17 d83d da03 873d f226 513d
00000090: c62d d7bd 7e92 54bd 221d ed3c e462 99bc
000000a0: 91b3 8a3d 369f 173e d131 d53c f072 a73d
000000b0: 5a9b 70bc 1bb7 4c3d 50a5 99bd a501 b6bd
000000c0: 4af1 313e 928b 2b3c 0965 e4bd 6f17 613d
000000d0: 86c5 9a3c e758 8b3d c070 b93d 3a5a 1f3e
000000e0: 845f d3bd b821 c1bd 85c2 813c 7152 febd
000000f0: fecf bb3d 9fec c33d e40c 163d 519a 46bd
00000100: e326 8c3c abf7 263c 6815 8b3d 1628 8bbc
00000110: 94d6 8bbc 752c 2a3e b4dc f6bd 439f aa3c
00000120: 9d49 f4bd 7a79 fdbc 390d 79bd 5fa7 9b3d
00000130: e04c c0bc 5243 e8bd f79c 2b3d bf88 103e
00000140: 872f e9bd a87c acbc 52af a83d 0831 633d
00000150: b881 edbd fb17 763d acff b63d 9100 573d
00000160: 6645 bf3d fb8d 27be 5d01 5fbd 4133 0abd
00000170: 445c 66be c527 fe3d ba4a 523c 143d 48bc
00000180: e7b6 ba3d 3c08 41bc 1db4 d5bc f185 5bbb
00000190: 5731 00be baca c33d cb9a c53d 5d1e 78bd
000001a0: b41c 24be 1b9f 183e e5d9 74bd 77fa 753d
000001b0: 4222 fd3d 5af2 803c ac6c 79bc 4bf8 1cbe
000001c0: a9dc 13bc 24f3 97bd 3ab6 b93d 56c3 fa3d
000001d0: 9d70 a2bd 707f db3c 7a46 68bc 0663 04be
000001e0: 234a 64bc dea7 b43d 55b6 acbd cb70 cfbd
000001f0: eef1 da3c 19a8 623d 4367 8b3d 5f76 a33d
00000200: 7e9b b0bd 774b f23d 7e27 663d f1c0 163b
00000210: 2796 bf3b b32f cb3d ef33 04bc e962 9fbc
00000220: bf71 27bd 6ac8 17be bf36 0f3e cb18 df3d
00000230: cbff 15be 58b1 86bd e189 923c f2b3 273d
00000240: e486 963d 13fc 883d a726 de3c ab42 80bc
00000250: f5de 99bd b803 d7bc ffbf c13b f628 fe3d
00000260: 09f2 a13d 796b 603d fcc0 fe3d 8666 81bc
00000270: b618 a2be 08d9 053e b21b 31bd 4436 28bc
00000280: 4a91 1d3d 746e 95bc f8b9 313e 81b1 493d
00000290: bad2 f6bd b3f2 103d 0a6a a1bd 8c95 9fbc
000002a0: d580 ab3d d0ce 0e3e f72f 0d3e 7a4b f03c
000002b0: c825 c2bd 56e4 52bd d425 e4bd d741 abbd
000002c0: 6a0a 773d cd0e 65bd dcdc 623b ee70 cd3d
000002d0: 1bd5 453d a4d2 8d3d e33f 093e f806 713d
000002e0: f5e8 973d 5a6c a13d e7c1 94bd 406b 65bd
000002f0: 6500 543e c01d c7bd 46f6 86bd f34f cf3c
00000300: 78e3 893c 68ba fc3d 7983 1a3e 50dc d5bd
00000310: bcba 3b3c 4eb5 97bd f505 313b 5cbc dc3d
0.13748513 0.11781711 0.014810388 0.08052689 0.12588085 -0.05649473 -0.427451 0.0718372
-0.003578173 0.04180888 -0.097384885 -0.024869563 0.10776383 0.13585298 -0.013296922 0.044468094
0.11024151 0.18462141 0.042051904 -0.22316353 0.09320316 0.028461814 -0.0821297 -0.02879455
-0.08445303 0.004256637 0.033198573 0.09525751 -0.11061534 0.004955839 0.05284885 0.12970269
-0.0621579 0.105513655 0.065925315 0.05106253 -0.105067775 -0.05189752 0.028944556 -0.018723913
0.06772531 0.14806828 0.02602473 0.081762195 -0.014685476 0.04997931 -0.07502234 -0.088870324
0.173772 0.010470288 -0.111520834 0.05495399 0.018893015 0.06804066 0.090547085 0.15561762
-0.103209525 -0.094302595 0.015839824 -0.12418068 0.09170531 0.09566616 0.036633387 -0.04848701
0.017108386 0.010190885 0.06791192 -0.016986888 -0.017070092 0.16618522 -0.120538145 0.020827895
-0.11928103 -0.030941714 -0.060803626 0.07600283 -0.023474157 -0.11340965 0.04189774 0.14114664
-0.11386018 -0.021055534 0.08236565 0.05546668 -0.115970075 0.060081463 0.08935484 0.052490775
0.093394086 -0.16362755 -0.05444466 -0.033740286 -0.22496134 0.12409929 0.012835199 -0.012221593
0.09116917 -0.011781748 -0.026086861 -0.0033496583 -0.12518822 0.095601514 0.09648665 -0.06057583
-0.16026574 0.14904444 -0.059778113 0.060053315 0.1236005 0.015740562 -0.015223663 -0.15329091
-0.009024777 -0.07419422 0.0906796 0.122442886 -0.079316355 0.026794165 -0.014176959 -0.129284
-0.013933691 0.088210806 -0.084332146 -0.101289354 0.02672669 0.05533609 0.06806805 0.07981562
-0.08623408 0.118308 0.056190006 0.0023003186 0.005846757 0.09921207 -0.008069023 -0.019456344
-0.04087996 -0.14822546 0.13985728 0.10893401 -0.14648359 -0.065767944 0.017888011 0.040943094
0.07349947 0.06688704 0.02711804 -0.01565679 -0.07513229 -0.02624689 0.0059127803 0.124101564
0.07907493 0.054789994 0.124391526 -0.015795957 -0.31659478 0.13071072 -0.043239303 -0.010266844
0.038468637 -0.018241145 0.17356098 0.049241547 -0.12051912 0.035387706 -0.078815535 -0.01948049
0.08374182 0.1394608 0.13787828 0.029332865 -0.094798625 -0.05148729 -0.11140028 -0.08362167
0.060312666 -0.05592232 0.0034616506 0.10031305 0.048298936 0.06924942 0.13403277 0.058844537
0.0741748 0.078819945 -0.072635464 -0.056010485 0.20703276 -0.09722471 -0.06589942 0.025306677
0.016832098 0.12340242 0.15089215 -0.10442412 0.011458095 -0.07407628 0.0027011607 0.10778114

fc.weight f4 [1, 50]
00000000: 2665 ccbd 3aed b83d 7a62 223e 9ee3 24be
00000010: f0b7 9ebd 8600 b53d d1d0 263f 4415 41be
00000020: 779e 003e 7fe8 f73d 8abd 02bd 9e26 90bd
00000030: 8d06 e5bd 4548 c4bd cfe3 73bd 817d 57bd
00000040: 534c bbbd 312f bf3e f1de f5bd b5cb 3fbf
00000050: f340 6fbd ac43 e23d bbc7 29be b657 6dbd
00000060: 8006 f73d 0d27 473d a82b debd f38b 80be
00000070: 6cd8 0ebd fa30 1f3e f715 bdbd c6f3 993d
00000080: c339 a5bd 7089 c1bd 765f 0bbd 7c61 74be
00000090: 2b48 fb3d 556f f3bd 2cb3 3f3e e231 eebd
000000a0: d211 d9bc 1015 6a3d 66a9 793e 952c 19be
000000b0: 1243 bc3e d582 afbd b0f2 0abe 473d b4bd
000000c0: 706a adbd 8850 fb3d
-0.0998023 0.090296224 0.15857878 -0.16102454 -0.07749927 0.088379905 0.6516238 -0.18855768
0.1256045 0.12104892 -0.03191904 -0.07038616 -0.1118289 -0.09584097 -0.059543427 -0.052609924
-0.09145417 0.37340692 -0.12005413 -0.7492021 -0.05841155 0.11048064 -0.16580097 -0.057944976
0.12061787 0.048621226 -0.108481705 -0.25106773 -0.034874365 0.15546027 -0.09232705 0.07517199
-0.08067658 -0.09450042 -0.034026586 -0.23865312 0.12269624 -0.11886469 0.18720692 -0.11630608
-0.026497755 0.057148993 0.24381027 -0.14958413 0.3676992 -0.08569876 -0.1356914 -0.0880075
-0.08467567 0.122712195
